graph(%self.1 : __torch__.detectron2.export.flatten.TracingAdapter,
      %1 : Float(3, 1067, 800, strides=[1, 2400, 3], requires_grad=0, device=cpu)):
  %model : __torch__.detectron2.modeling.meta_arch.rcnn.GeneralizedRCNN = prim::GetAttr[name="model"](%self.1)
  %roi_heads : __torch__.detectron2.modeling.roi_heads.roi_heads.StandardROIHeads = prim::GetAttr[name="roi_heads"](%model)
  %model.7 : __torch__.detectron2.modeling.meta_arch.rcnn.GeneralizedRCNN = prim::GetAttr[name="model"](%self.1)
  %proposal_generator : __torch__.detectron2.modeling.proposal_generator.rpn.RPN = prim::GetAttr[name="proposal_generator"](%model.7)
  %model.5 : __torch__.detectron2.modeling.meta_arch.rcnn.GeneralizedRCNN = prim::GetAttr[name="model"](%self.1)
  %backbone : __torch__.detectron2.modeling.backbone.fpn.FPN = prim::GetAttr[name="backbone"](%model.5)
  %model.3 : __torch__.detectron2.modeling.meta_arch.rcnn.GeneralizedRCNN = prim::GetAttr[name="model"](%self.1)
  %pixel_std : Tensor = prim::GetAttr[name="pixel_std"](%model.3)
  %model.1 : __torch__.detectron2.modeling.meta_arch.rcnn.GeneralizedRCNN = prim::GetAttr[name="model"](%self.1)
  %pixel_mean : Tensor = prim::GetAttr[name="pixel_mean"](%model.1)
  %12 : Function = prim::Constant[name="move_device_like"]()
  %103 : NoneType = prim::Constant()
  %104 : bool = prim::Constant[value=0]()
  %105 : Device = prim::device(%pixel_mean)
  %x.1 : Tensor = aten::to(%1, %105, %103, %104, %104) # /home/tbelldev/workspace/detectron2/detectron2/detectron2/layers/wrappers.py:148:11
  %14 : int = prim::Constant[value=1]() # /home/tbelldev/workspace/detectron2/detectron2/detectron2/modeling/meta_arch/rcnn.py:228:0
  %15 : Float(3, 1067, 800, strides=[1, 2400, 3], requires_grad=0, device=cuda:0) = aten::sub(%x.1, %pixel_mean, %14) # /home/tbelldev/workspace/detectron2/detectron2/detectron2/modeling/meta_arch/rcnn.py:228:0
  %t : Float(3, 1067, 800, strides=[1, 2400, 3], requires_grad=0, device=cuda:0) = aten::div(%15, %pixel_std) # /home/tbelldev/workspace/detectron2/detectron2/detectron2/modeling/meta_arch/rcnn.py:228:0
  %17 : int = prim::Constant[value=1]() # /home/tbelldev/workspace/detectron2/detectron2/detectron2/structures/image_list.py:87:0
  %18 : int = aten::size(%t, %17) # /home/tbelldev/workspace/detectron2/detectron2/detectron2/structures/image_list.py:87:0
  %19 : Long(device=cpu) = prim::NumToTensor(%18)
  %20 : int = prim::Constant[value=2]() # /home/tbelldev/workspace/detectron2/detectron2/detectron2/structures/image_list.py:87:0
  %21 : int = aten::size(%t, %20) # /home/tbelldev/workspace/detectron2/detectron2/detectron2/structures/image_list.py:87:0
  %22 : Long(device=cpu) = prim::NumToTensor(%21)
  %23 : Tensor[] = prim::ListConstruct(%19, %22)
  %24 : int = prim::Constant[value=0]() # export_model.py:40:0
  %25 : Long(2, strides=[1], requires_grad=0, device=cpu) = aten::stack(%23, %24) # export_model.py:40:0
  %26 : int = prim::Constant[value=4]() # export_model.py:40:0
  %27 : int = prim::Constant[value=0]() # export_model.py:40:0
  %28 : Device = prim::Constant[value="cuda"]() # export_model.py:40:0
  %29 : NoneType = prim::Constant()
  %30 : bool = prim::Constant[value=0]() # export_model.py:40:0
  %31 : bool = prim::Constant[value=0]() # export_model.py:40:0
  %32 : NoneType = prim::Constant()
  %image_size : Long(2, strides=[1], requires_grad=0, device=cuda:0) = aten::to(%25, %26, %27, %28, %29, %30, %31, %32) # export_model.py:40:0
  %34 : Tensor[] = prim::ListConstruct(%image_size)
  %35 : int = prim::Constant[value=0]() # export_model.py:40:0
  %36 : Long(1, 2, strides=[2, 1], requires_grad=0, device=cuda:0) = aten::stack(%34, %35) # export_model.py:40:0
  %37 : int = prim::Constant[value=4]() # export_model.py:40:0
  %38 : int = prim::Constant[value=0]() # export_model.py:40:0
  %39 : Device = prim::Constant[value="cuda"]() # export_model.py:40:0
  %40 : NoneType = prim::Constant()
  %41 : bool = prim::Constant[value=0]() # export_model.py:40:0
  %42 : bool = prim::Constant[value=0]() # export_model.py:40:0
  %43 : NoneType = prim::Constant()
  %44 : Long(1, 2, strides=[2, 1], requires_grad=0, device=cuda:0) = aten::to(%36, %37, %38, %39, %40, %41, %42, %43) # export_model.py:40:0
  %45 : int = prim::Constant[value=0]() # /home/tbelldev/workspace/detectron2/detectron2/detectron2/structures/image_list.py:89:0
  %46 : bool = prim::Constant[value=0]() # /home/tbelldev/workspace/detectron2/detectron2/detectron2/structures/image_list.py:89:0
  %max_size.1 : Long(2, strides=[1], requires_grad=0, device=cuda:0), %48 : Long(2, strides=[1], requires_grad=0, device=cuda:0) = aten::max(%44, %45, %46) # /home/tbelldev/workspace/detectron2/detectron2/detectron2/structures/image_list.py:89:0
  %49 : Long(requires_grad=0, device=cpu) = prim::Constant[value={31}]() # /home/tbelldev/workspace/detectron2/detectron2/detectron2/structures/image_list.py:101:0
  %50 : int = prim::Constant[value=1]() # /home/tbelldev/workspace/detectron2/detectron2/detectron2/structures/image_list.py:101:0
  %51 : Long(2, strides=[1], requires_grad=0, device=cuda:0) = aten::add(%max_size.1, %49, %50) # /home/tbelldev/workspace/detectron2/detectron2/detectron2/structures/image_list.py:101:0
  %52 : Long(requires_grad=0, device=cpu) = prim::Constant[value={32}]() # /home/tbelldev/workspace/detectron2/detectron2/detectron2/structures/image_list.py:101:0
  %53 : str = prim::Constant[value="floor"]() # /home/tbelldev/workspace/detectron2/detectron2/detectron2/structures/image_list.py:101:0
  %54 : Long(2, strides=[1], requires_grad=0, device=cuda:0) = aten::div(%51, %52, %53) # /home/tbelldev/workspace/detectron2/detectron2/detectron2/structures/image_list.py:101:0
  %55 : Long(requires_grad=0, device=cpu) = prim::Constant[value={32}]() # /home/tbelldev/workspace/detectron2/detectron2/detectron2/structures/image_list.py:101:0
  %max_size : Long(2, strides=[1], requires_grad=0, device=cuda:0) = aten::mul(%54, %55) # /home/tbelldev/workspace/detectron2/detectron2/detectron2/structures/image_list.py:101:0
  %57 : int = prim::Constant[value=0]() # /home/tbelldev/workspace/detectron2/detectron2/detectron2/structures/image_list.py:114:0
  %58 : int = prim::Constant[value=-1]() # /home/tbelldev/workspace/detectron2/detectron2/detectron2/structures/image_list.py:114:0
  %59 : Long(requires_grad=0, device=cuda:0) = aten::select(%max_size, %57, %58) # /home/tbelldev/workspace/detectron2/detectron2/detectron2/structures/image_list.py:114:0
  %60 : int = prim::Constant[value=0]() # /home/tbelldev/workspace/detectron2/detectron2/detectron2/structures/image_list.py:114:0
  %61 : int = prim::Constant[value=1]() # /home/tbelldev/workspace/detectron2/detectron2/detectron2/structures/image_list.py:114:0
  %62 : Long(requires_grad=0, device=cuda:0) = aten::select(%image_size, %60, %61) # /home/tbelldev/workspace/detectron2/detectron2/detectron2/structures/image_list.py:114:0
  %63 : int = prim::Constant[value=1]() # /home/tbelldev/workspace/detectron2/detectron2/detectron2/structures/image_list.py:114:0
  %64 : Long(requires_grad=0, device=cuda:0) = aten::sub(%59, %62, %63) # /home/tbelldev/workspace/detectron2/detectron2/detectron2/structures/image_list.py:114:0
  %65 : int = aten::Int(%64)
  %66 : int = prim::Constant[value=0]() # /home/tbelldev/workspace/detectron2/detectron2/detectron2/structures/image_list.py:114:0
  %67 : int = prim::Constant[value=-2]() # /home/tbelldev/workspace/detectron2/detectron2/detectron2/structures/image_list.py:114:0
  %68 : Long(requires_grad=0, device=cuda:0) = aten::select(%max_size, %66, %67) # /home/tbelldev/workspace/detectron2/detectron2/detectron2/structures/image_list.py:114:0
  %69 : int = prim::Constant[value=0]() # /home/tbelldev/workspace/detectron2/detectron2/detectron2/structures/image_list.py:114:0
  %70 : int = prim::Constant[value=0]() # /home/tbelldev/workspace/detectron2/detectron2/detectron2/structures/image_list.py:114:0
  %71 : Long(requires_grad=0, device=cuda:0) = aten::select(%image_size, %69, %70) # /home/tbelldev/workspace/detectron2/detectron2/detectron2/structures/image_list.py:114:0
  %72 : int = prim::Constant[value=1]() # /home/tbelldev/workspace/detectron2/detectron2/detectron2/structures/image_list.py:114:0
  %73 : Long(requires_grad=0, device=cuda:0) = aten::sub(%68, %71, %72) # /home/tbelldev/workspace/detectron2/detectron2/detectron2/structures/image_list.py:114:0
  %74 : int = aten::Int(%73)
  %75 : int = prim::Constant[value=0]() # /home/tbelldev/anaconda3/envs/autolabeling/lib/python3.8/site-packages/torch/nn/functional.py:4364:0
  %76 : int = prim::Constant[value=0]() # /home/tbelldev/anaconda3/envs/autolabeling/lib/python3.8/site-packages/torch/nn/functional.py:4364:0
  %77 : int[] = prim::ListConstruct(%75, %65, %76, %74)
  %78 : float = prim::Constant[value=0.]() # /home/tbelldev/anaconda3/envs/autolabeling/lib/python3.8/site-packages/torch/nn/functional.py:4364:0
  %79 : Float(3, 1088, 800, strides=[870400, 800, 1], requires_grad=0, device=cuda:0) = aten::constant_pad_nd(%t, %77, %78) # /home/tbelldev/anaconda3/envs/autolabeling/lib/python3.8/site-packages/torch/nn/functional.py:4364:0
  %80 : int = prim::Constant[value=0]() # /home/tbelldev/workspace/detectron2/detectron2/detectron2/structures/image_list.py:115:0
  %batched_imgs : Float(1, 3, 1088, 800, strides=[2611200, 870400, 800, 1], requires_grad=0, device=cuda:0) = aten::unsqueeze_(%79, %80) # /home/tbelldev/workspace/detectron2/detectron2/detectron2/structures/image_list.py:115:0
  %82 : int = prim::Constant[value=0]() # /home/tbelldev/workspace/detectron2/detectron2/detectron2/structures/image_list.py:129:0
  %x.3 : Float(1, 3, 1088, 800, strides=[2611200, 870400, 800, 1], requires_grad=0, device=cuda:0) = aten::contiguous(%batched_imgs, %82) # /home/tbelldev/workspace/detectron2/detectron2/detectron2/structures/image_list.py:129:0
  %107 : float = prim::Constant[value=2.](), scope: __module.model.backbone # /home/tbelldev/anaconda3/envs/autolabeling/lib/python3.8/site-packages/torch/nn/functional.py:3891:0
  %108 : NoneType = prim::Constant(), scope: __module.model.backbone/__module.model.backbone.bottom_up/__module.model.backbone.bottom_up.stem/__module.model.backbone.bottom_up.stem.conv1
  %109 : int = prim::Constant[value=2](), scope: __module.model.backbone/__module.model.backbone.bottom_up/__module.model.backbone.bottom_up.stem/__module.model.backbone.bottom_up.stem.conv1 # /home/tbelldev/workspace/detectron2/detectron2/detectron2/layers/wrappers.py:113:0
  %110 : int = prim::Constant[value=3](), scope: __module.model.backbone/__module.model.backbone.bottom_up/__module.model.backbone.bottom_up.stem/__module.model.backbone.bottom_up.stem.conv1 # /home/tbelldev/workspace/detectron2/detectron2/detectron2/layers/wrappers.py:113:0
  %111 : int = prim::Constant[value=1](), scope: __module.model.backbone/__module.model.backbone.bottom_up/__module.model.backbone.bottom_up.stem/__module.model.backbone.bottom_up.stem.conv1 # /home/tbelldev/workspace/detectron2/detectron2/detectron2/layers/wrappers.py:113:0
  %112 : bool = prim::Constant[value=0](), scope: __module.model.backbone/__module.model.backbone.bottom_up/__module.model.backbone.bottom_up.stem/__module.model.backbone.bottom_up.stem.conv1 # /home/tbelldev/workspace/detectron2/detectron2/detectron2/layers/wrappers.py:113:0
  %113 : int = prim::Constant[value=0](), scope: __module.model.backbone/__module.model.backbone.bottom_up/__module.model.backbone.bottom_up.stem/__module.model.backbone.bottom_up.stem.conv1 # /home/tbelldev/workspace/detectron2/detectron2/detectron2/layers/wrappers.py:113:0
  %114 : bool = prim::Constant[value=1](), scope: __module.model.backbone/__module.model.backbone.bottom_up/__module.model.backbone.bottom_up.stem/__module.model.backbone.bottom_up.stem.conv1 # /home/tbelldev/workspace/detectron2/detectron2/detectron2/layers/wrappers.py:113:0
  %115 : float = prim::Constant[value=1.0000000000000001e-05](), scope: __module.model.backbone/__module.model.backbone.bottom_up/__module.model.backbone.bottom_up.stem/__module.model.backbone.bottom_up.stem.conv1/__module.model.backbone.bottom_up.stem.conv1.norm # /home/tbelldev/anaconda3/envs/autolabeling/lib/python3.8/site-packages/torch/nn/functional.py:2421:0
  %116 : float = prim::Constant[value=0.10000000000000001](), scope: __module.model.backbone/__module.model.backbone.bottom_up/__module.model.backbone.bottom_up.stem/__module.model.backbone.bottom_up.stem.conv1/__module.model.backbone.bottom_up.stem.conv1.norm # /home/tbelldev/anaconda3/envs/autolabeling/lib/python3.8/site-packages/torch/nn/functional.py:2421:0
  %top_block : __torch__.detectron2.modeling.backbone.fpn.LastLevelMaxPool = prim::GetAttr[name="top_block"](%backbone)
  %fpn_output2 : __torch__.detectron2.layers.wrappers.___torch_mangle_0.Conv2d = prim::GetAttr[name="fpn_output2"](%backbone)
  %fpn_lateral2 : __torch__.detectron2.layers.wrappers.Conv2d = prim::GetAttr[name="fpn_lateral2"](%backbone)
  %fpn_output3 : __torch__.detectron2.layers.wrappers.___torch_mangle_2.Conv2d = prim::GetAttr[name="fpn_output3"](%backbone)
  %fpn_lateral3 : __torch__.detectron2.layers.wrappers.___torch_mangle_1.Conv2d = prim::GetAttr[name="fpn_lateral3"](%backbone)
  %fpn_output4 : __torch__.detectron2.layers.wrappers.___torch_mangle_4.Conv2d = prim::GetAttr[name="fpn_output4"](%backbone)
  %fpn_lateral4 : __torch__.detectron2.layers.wrappers.___torch_mangle_3.Conv2d = prim::GetAttr[name="fpn_lateral4"](%backbone)
  %fpn_output5 : __torch__.detectron2.layers.wrappers.___torch_mangle_6.Conv2d = prim::GetAttr[name="fpn_output5"](%backbone)
  %fpn_lateral5 : __torch__.detectron2.layers.wrappers.___torch_mangle_5.Conv2d = prim::GetAttr[name="fpn_lateral5"](%backbone)
  %bottom_up : __torch__.detectron2.modeling.backbone.resnet.ResNet = prim::GetAttr[name="bottom_up"](%backbone)
  %res5 : __torch__.torch.nn.modules.container.___torch_mangle_129.Sequential = prim::GetAttr[name="res5"](%bottom_up)
  %res4 : __torch__.torch.nn.modules.container.___torch_mangle_105.Sequential = prim::GetAttr[name="res4"](%bottom_up)
  %res3 : __torch__.torch.nn.modules.container.___torch_mangle_60.Sequential = prim::GetAttr[name="res3"](%bottom_up)
  %res2 : __torch__.torch.nn.modules.container.Sequential = prim::GetAttr[name="res2"](%bottom_up)
  %stem : __torch__.detectron2.modeling.backbone.resnet.BasicStem = prim::GetAttr[name="stem"](%bottom_up)
  %conv1.1 : __torch__.detectron2.layers.wrappers.___torch_mangle_7.Conv2d = prim::GetAttr[name="conv1"](%stem)
  %norm.1 : __torch__.detectron2.layers.batch_norm.FrozenBatchNorm2d = prim::GetAttr[name="norm"](%conv1.1)
  %weight.111 : Tensor = prim::GetAttr[name="weight"](%conv1.1)
  %135 : int[] = prim::ListConstruct(%109, %109), scope: __module.model.backbone/__module.model.backbone.bottom_up/__module.model.backbone.bottom_up.stem/__module.model.backbone.bottom_up.stem.conv1
  %136 : int[] = prim::ListConstruct(%110, %110), scope: __module.model.backbone/__module.model.backbone.bottom_up/__module.model.backbone.bottom_up.stem/__module.model.backbone.bottom_up.stem.conv1
  %137 : int[] = prim::ListConstruct(%111, %111), scope: __module.model.backbone/__module.model.backbone.bottom_up/__module.model.backbone.bottom_up.stem/__module.model.backbone.bottom_up.stem.conv1
  %138 : int[] = prim::ListConstruct(%113, %113), scope: __module.model.backbone/__module.model.backbone.bottom_up/__module.model.backbone.bottom_up.stem/__module.model.backbone.bottom_up.stem.conv1
  %input.1 : Float(1, 64, 544, 400, strides=[13926400, 217600, 400, 1], requires_grad=0, device=cuda:0) = aten::_convolution(%x.3, %weight.111, %108, %135, %136, %137, %112, %138, %111, %112, %112, %114, %114), scope: __module.model.backbone/__module.model.backbone.bottom_up/__module.model.backbone.bottom_up.stem/__module.model.backbone.bottom_up.stem.conv1 # /home/tbelldev/workspace/detectron2/detectron2/detectron2/layers/wrappers.py:113:0
  %running_var.107 : Tensor = prim::GetAttr[name="running_var"](%norm.1)
  %running_mean.107 : Tensor = prim::GetAttr[name="running_mean"](%norm.1)
  %bias.111 : Tensor = prim::GetAttr[name="bias"](%norm.1)
  %weight.113 : Tensor = prim::GetAttr[name="weight"](%norm.1)
  %x.5 : Float(1, 64, 544, 400, strides=[13926400, 217600, 400, 1], requires_grad=0, device=cuda:0) = aten::batch_norm(%input.1, %weight.113, %bias.111, %running_mean.107, %running_var.107, %112, %116, %115, %114), scope: __module.model.backbone/__module.model.backbone.bottom_up/__module.model.backbone.bottom_up.stem/__module.model.backbone.bottom_up.stem.conv1/__module.model.backbone.bottom_up.stem.conv1.norm # /home/tbelldev/anaconda3/envs/autolabeling/lib/python3.8/site-packages/torch/nn/functional.py:2421:0
  %input.3 : Float(1, 64, 544, 400, strides=[13926400, 217600, 400, 1], requires_grad=0, device=cuda:0) = aten::relu_(%x.5), scope: __module.model.backbone/__module.model.backbone.bottom_up/__module.model.backbone.bottom_up.stem # /home/tbelldev/workspace/detectron2/detectron2/detectron2/modeling/backbone/resnet.py:357:0
  %146 : int[] = prim::ListConstruct(%110, %110), scope: __module.model.backbone/__module.model.backbone.bottom_up/__module.model.backbone.bottom_up.stem
  %147 : int[] = prim::ListConstruct(%109, %109), scope: __module.model.backbone/__module.model.backbone.bottom_up/__module.model.backbone.bottom_up.stem
  %148 : int[] = prim::ListConstruct(%111, %111), scope: __module.model.backbone/__module.model.backbone.bottom_up/__module.model.backbone.bottom_up.stem
  %149 : int[] = prim::ListConstruct(%111, %111), scope: __module.model.backbone/__module.model.backbone.bottom_up/__module.model.backbone.bottom_up.stem
  %x.7 : Float(1, 64, 272, 200, strides=[3481600, 54400, 200, 1], requires_grad=0, device=cuda:0) = aten::max_pool2d(%input.3, %146, %147, %148, %149, %112), scope: __module.model.backbone/__module.model.backbone.bottom_up/__module.model.backbone.bottom_up.stem # /home/tbelldev/anaconda3/envs/autolabeling/lib/python3.8/site-packages/torch/nn/functional.py:797:0
  %_2.1 : __torch__.detectron2.modeling.backbone.resnet.___torch_mangle_29.BottleneckBlock = prim::GetAttr[name="2"](%res2)
  %_1.1 : __torch__.detectron2.modeling.backbone.resnet.___torch_mangle_22.BottleneckBlock = prim::GetAttr[name="1"](%res2)
  %_0.1 : __torch__.detectron2.modeling.backbone.resnet.BottleneckBlock = prim::GetAttr[name="0"](%res2)
  %shortcut.9 : __torch__.detectron2.layers.wrappers.___torch_mangle_9.Conv2d = prim::GetAttr[name="shortcut"](%_0.1)
  %conv3.1 : __torch__.detectron2.layers.wrappers.___torch_mangle_15.Conv2d = prim::GetAttr[name="conv3"](%_0.1)
  %conv2.1 : __torch__.detectron2.layers.wrappers.___torch_mangle_13.Conv2d = prim::GetAttr[name="conv2"](%_0.1)
  %conv1.3 : __torch__.detectron2.layers.wrappers.___torch_mangle_11.Conv2d = prim::GetAttr[name="conv1"](%_0.1)
  %norm.3 : __torch__.detectron2.layers.batch_norm.___torch_mangle_10.FrozenBatchNorm2d = prim::GetAttr[name="norm"](%conv1.3)
  %weight.115 : Tensor = prim::GetAttr[name="weight"](%conv1.3)
  %160 : int[] = prim::ListConstruct(%111, %111), scope: __module.model.backbone/__module.model.backbone.bottom_up/__module.model.backbone.bottom_up.res2/__module.model.backbone.bottom_up.res2.0/__module.model.backbone.bottom_up.res2.0.conv1
  %161 : int[] = prim::ListConstruct(%113, %113), scope: __module.model.backbone/__module.model.backbone.bottom_up/__module.model.backbone.bottom_up.res2/__module.model.backbone.bottom_up.res2.0/__module.model.backbone.bottom_up.res2.0.conv1
  %162 : int[] = prim::ListConstruct(%111, %111), scope: __module.model.backbone/__module.model.backbone.bottom_up/__module.model.backbone.bottom_up.res2/__module.model.backbone.bottom_up.res2.0/__module.model.backbone.bottom_up.res2.0.conv1
  %163 : int[] = prim::ListConstruct(%113, %113), scope: __module.model.backbone/__module.model.backbone.bottom_up/__module.model.backbone.bottom_up.res2/__module.model.backbone.bottom_up.res2.0/__module.model.backbone.bottom_up.res2.0.conv1
  %input.5 : Float(1, 64, 272, 200, strides=[3481600, 54400, 200, 1], requires_grad=0, device=cuda:0) = aten::_convolution(%x.7, %weight.115, %108, %160, %161, %162, %112, %163, %111, %112, %112, %114, %114), scope: __module.model.backbone/__module.model.backbone.bottom_up/__module.model.backbone.bottom_up.res2/__module.model.backbone.bottom_up.res2.0/__module.model.backbone.bottom_up.res2.0.conv1 # /home/tbelldev/workspace/detectron2/detectron2/detectron2/layers/wrappers.py:113:0
  %running_var.109 : Tensor = prim::GetAttr[name="running_var"](%norm.3)
  %running_mean.109 : Tensor = prim::GetAttr[name="running_mean"](%norm.3)
  %bias.113 : Tensor = prim::GetAttr[name="bias"](%norm.3)
  %weight.117 : Tensor = prim::GetAttr[name="weight"](%norm.3)
  %out.1 : Float(1, 64, 272, 200, strides=[3481600, 54400, 200, 1], requires_grad=0, device=cuda:0) = aten::batch_norm(%input.5, %weight.117, %bias.113, %running_mean.109, %running_var.109, %112, %116, %115, %114), scope: __module.model.backbone/__module.model.backbone.bottom_up/__module.model.backbone.bottom_up.res2/__module.model.backbone.bottom_up.res2.0/__module.model.backbone.bottom_up.res2.0.conv1/__module.model.backbone.bottom_up.res2.0.conv1.norm # /home/tbelldev/anaconda3/envs/autolabeling/lib/python3.8/site-packages/torch/nn/functional.py:2421:0
  %x.9 : Float(1, 64, 272, 200, strides=[3481600, 54400, 200, 1], requires_grad=0, device=cuda:0) = aten::relu_(%out.1), scope: __module.model.backbone/__module.model.backbone.bottom_up/__module.model.backbone.bottom_up.res2/__module.model.backbone.bottom_up.res2.0 # /home/tbelldev/workspace/detectron2/detectron2/detectron2/modeling/backbone/resnet.py:196:0
  %norm.5 : __torch__.detectron2.layers.batch_norm.___torch_mangle_12.FrozenBatchNorm2d = prim::GetAttr[name="norm"](%conv2.1)
  %weight.119 : Tensor = prim::GetAttr[name="weight"](%conv2.1)
  %173 : int[] = prim::ListConstruct(%111, %111), scope: __module.model.backbone/__module.model.backbone.bottom_up/__module.model.backbone.bottom_up.res2/__module.model.backbone.bottom_up.res2.0/__module.model.backbone.bottom_up.res2.0.conv2
  %174 : int[] = prim::ListConstruct(%111, %111), scope: __module.model.backbone/__module.model.backbone.bottom_up/__module.model.backbone.bottom_up.res2/__module.model.backbone.bottom_up.res2.0/__module.model.backbone.bottom_up.res2.0.conv2
  %175 : int[] = prim::ListConstruct(%111, %111), scope: __module.model.backbone/__module.model.backbone.bottom_up/__module.model.backbone.bottom_up.res2/__module.model.backbone.bottom_up.res2.0/__module.model.backbone.bottom_up.res2.0.conv2
  %176 : int[] = prim::ListConstruct(%113, %113), scope: __module.model.backbone/__module.model.backbone.bottom_up/__module.model.backbone.bottom_up.res2/__module.model.backbone.bottom_up.res2.0/__module.model.backbone.bottom_up.res2.0.conv2
  %input.7 : Float(1, 64, 272, 200, strides=[3481600, 54400, 200, 1], requires_grad=0, device=cuda:0) = aten::_convolution(%x.9, %weight.119, %108, %173, %174, %175, %112, %176, %111, %112, %112, %114, %114), scope: __module.model.backbone/__module.model.backbone.bottom_up/__module.model.backbone.bottom_up.res2/__module.model.backbone.bottom_up.res2.0/__module.model.backbone.bottom_up.res2.0.conv2 # /home/tbelldev/workspace/detectron2/detectron2/detectron2/layers/wrappers.py:113:0
  %running_var.111 : Tensor = prim::GetAttr[name="running_var"](%norm.5)
  %running_mean.111 : Tensor = prim::GetAttr[name="running_mean"](%norm.5)
  %bias.115 : Tensor = prim::GetAttr[name="bias"](%norm.5)
  %weight.121 : Tensor = prim::GetAttr[name="weight"](%norm.5)
  %out.3 : Float(1, 64, 272, 200, strides=[3481600, 54400, 200, 1], requires_grad=0, device=cuda:0) = aten::batch_norm(%input.7, %weight.121, %bias.115, %running_mean.111, %running_var.111, %112, %116, %115, %114), scope: __module.model.backbone/__module.model.backbone.bottom_up/__module.model.backbone.bottom_up.res2/__module.model.backbone.bottom_up.res2.0/__module.model.backbone.bottom_up.res2.0.conv2/__module.model.backbone.bottom_up.res2.0.conv2.norm # /home/tbelldev/anaconda3/envs/autolabeling/lib/python3.8/site-packages/torch/nn/functional.py:2421:0
  %x.11 : Float(1, 64, 272, 200, strides=[3481600, 54400, 200, 1], requires_grad=0, device=cuda:0) = aten::relu_(%out.3), scope: __module.model.backbone/__module.model.backbone.bottom_up/__module.model.backbone.bottom_up.res2/__module.model.backbone.bottom_up.res2.0 # /home/tbelldev/workspace/detectron2/detectron2/detectron2/modeling/backbone/resnet.py:199:0
  %norm.7 : __torch__.detectron2.layers.batch_norm.___torch_mangle_14.FrozenBatchNorm2d = prim::GetAttr[name="norm"](%conv3.1)
  %weight.123 : Tensor = prim::GetAttr[name="weight"](%conv3.1)
  %186 : int[] = prim::ListConstruct(%111, %111), scope: __module.model.backbone/__module.model.backbone.bottom_up/__module.model.backbone.bottom_up.res2/__module.model.backbone.bottom_up.res2.0/__module.model.backbone.bottom_up.res2.0.conv3
  %187 : int[] = prim::ListConstruct(%113, %113), scope: __module.model.backbone/__module.model.backbone.bottom_up/__module.model.backbone.bottom_up.res2/__module.model.backbone.bottom_up.res2.0/__module.model.backbone.bottom_up.res2.0.conv3
  %188 : int[] = prim::ListConstruct(%111, %111), scope: __module.model.backbone/__module.model.backbone.bottom_up/__module.model.backbone.bottom_up.res2/__module.model.backbone.bottom_up.res2.0/__module.model.backbone.bottom_up.res2.0.conv3
  %189 : int[] = prim::ListConstruct(%113, %113), scope: __module.model.backbone/__module.model.backbone.bottom_up/__module.model.backbone.bottom_up.res2/__module.model.backbone.bottom_up.res2.0/__module.model.backbone.bottom_up.res2.0.conv3
  %input.9 : Float(1, 256, 272, 200, strides=[13926400, 54400, 200, 1], requires_grad=0, device=cuda:0) = aten::_convolution(%x.11, %weight.123, %108, %186, %187, %188, %112, %189, %111, %112, %112, %114, %114), scope: __module.model.backbone/__module.model.backbone.bottom_up/__module.model.backbone.bottom_up.res2/__module.model.backbone.bottom_up.res2.0/__module.model.backbone.bottom_up.res2.0.conv3 # /home/tbelldev/workspace/detectron2/detectron2/detectron2/layers/wrappers.py:113:0
  %running_var.113 : Tensor = prim::GetAttr[name="running_var"](%norm.7)
  %running_mean.113 : Tensor = prim::GetAttr[name="running_mean"](%norm.7)
  %bias.117 : Tensor = prim::GetAttr[name="bias"](%norm.7)
  %weight.125 : Tensor = prim::GetAttr[name="weight"](%norm.7)
  %out.5 : Float(1, 256, 272, 200, strides=[13926400, 54400, 200, 1], requires_grad=0, device=cuda:0) = aten::batch_norm(%input.9, %weight.125, %bias.117, %running_mean.113, %running_var.113, %112, %116, %115, %114), scope: __module.model.backbone/__module.model.backbone.bottom_up/__module.model.backbone.bottom_up.res2/__module.model.backbone.bottom_up.res2.0/__module.model.backbone.bottom_up.res2.0.conv3/__module.model.backbone.bottom_up.res2.0.conv3.norm # /home/tbelldev/anaconda3/envs/autolabeling/lib/python3.8/site-packages/torch/nn/functional.py:2421:0
  %norm.9 : __torch__.detectron2.layers.batch_norm.___torch_mangle_8.FrozenBatchNorm2d = prim::GetAttr[name="norm"](%shortcut.9)
  %weight.127 : Tensor = prim::GetAttr[name="weight"](%shortcut.9)
  %198 : int[] = prim::ListConstruct(%111, %111), scope: __module.model.backbone/__module.model.backbone.bottom_up/__module.model.backbone.bottom_up.res2/__module.model.backbone.bottom_up.res2.0/__module.model.backbone.bottom_up.res2.0.shortcut
  %199 : int[] = prim::ListConstruct(%113, %113), scope: __module.model.backbone/__module.model.backbone.bottom_up/__module.model.backbone.bottom_up.res2/__module.model.backbone.bottom_up.res2.0/__module.model.backbone.bottom_up.res2.0.shortcut
  %200 : int[] = prim::ListConstruct(%111, %111), scope: __module.model.backbone/__module.model.backbone.bottom_up/__module.model.backbone.bottom_up.res2/__module.model.backbone.bottom_up.res2.0/__module.model.backbone.bottom_up.res2.0.shortcut
  %201 : int[] = prim::ListConstruct(%113, %113), scope: __module.model.backbone/__module.model.backbone.bottom_up/__module.model.backbone.bottom_up.res2/__module.model.backbone.bottom_up.res2.0/__module.model.backbone.bottom_up.res2.0.shortcut
  %input.11 : Float(1, 256, 272, 200, strides=[13926400, 54400, 200, 1], requires_grad=0, device=cuda:0) = aten::_convolution(%x.7, %weight.127, %108, %198, %199, %200, %112, %201, %111, %112, %112, %114, %114), scope: __module.model.backbone/__module.model.backbone.bottom_up/__module.model.backbone.bottom_up.res2/__module.model.backbone.bottom_up.res2.0/__module.model.backbone.bottom_up.res2.0.shortcut # /home/tbelldev/workspace/detectron2/detectron2/detectron2/layers/wrappers.py:113:0
  %running_var.115 : Tensor = prim::GetAttr[name="running_var"](%norm.9)
  %running_mean.115 : Tensor = prim::GetAttr[name="running_mean"](%norm.9)
  %bias.119 : Tensor = prim::GetAttr[name="bias"](%norm.9)
  %weight.129 : Tensor = prim::GetAttr[name="weight"](%norm.9)
  %shortcut.1 : Float(1, 256, 272, 200, strides=[13926400, 54400, 200, 1], requires_grad=0, device=cuda:0) = aten::batch_norm(%input.11, %weight.129, %bias.119, %running_mean.115, %running_var.115, %112, %116, %115, %114), scope: __module.model.backbone/__module.model.backbone.bottom_up/__module.model.backbone.bottom_up.res2/__module.model.backbone.bottom_up.res2.0/__module.model.backbone.bottom_up.res2.0.shortcut/__module.model.backbone.bottom_up.res2.0.shortcut.norm # /home/tbelldev/anaconda3/envs/autolabeling/lib/python3.8/site-packages/torch/nn/functional.py:2421:0
  %out.7 : Float(1, 256, 272, 200, strides=[13926400, 54400, 200, 1], requires_grad=0, device=cuda:0) = aten::add_(%out.5, %shortcut.1, %111), scope: __module.model.backbone/__module.model.backbone.bottom_up/__module.model.backbone.bottom_up.res2/__module.model.backbone.bottom_up.res2.0 # /home/tbelldev/workspace/detectron2/detectron2/detectron2/modeling/backbone/resnet.py:208:0
  %x.13 : Float(1, 256, 272, 200, strides=[13926400, 54400, 200, 1], requires_grad=0, device=cuda:0) = aten::relu_(%out.7), scope: __module.model.backbone/__module.model.backbone.bottom_up/__module.model.backbone.bottom_up.res2/__module.model.backbone.bottom_up.res2.0 # /home/tbelldev/workspace/detectron2/detectron2/detectron2/modeling/backbone/resnet.py:209:0
  %conv3.3 : __torch__.detectron2.layers.wrappers.___torch_mangle_21.Conv2d = prim::GetAttr[name="conv3"](%_1.1)
  %conv2.3 : __torch__.detectron2.layers.wrappers.___torch_mangle_19.Conv2d = prim::GetAttr[name="conv2"](%_1.1)
  %conv1.5 : __torch__.detectron2.layers.wrappers.___torch_mangle_17.Conv2d = prim::GetAttr[name="conv1"](%_1.1)
  %norm.11 : __torch__.detectron2.layers.batch_norm.___torch_mangle_16.FrozenBatchNorm2d = prim::GetAttr[name="norm"](%conv1.5)
  %weight.131 : Tensor = prim::GetAttr[name="weight"](%conv1.5)
  %215 : int[] = prim::ListConstruct(%111, %111), scope: __module.model.backbone/__module.model.backbone.bottom_up/__module.model.backbone.bottom_up.res2/__module.model.backbone.bottom_up.res2.1/__module.model.backbone.bottom_up.res2.1.conv1
  %216 : int[] = prim::ListConstruct(%113, %113), scope: __module.model.backbone/__module.model.backbone.bottom_up/__module.model.backbone.bottom_up.res2/__module.model.backbone.bottom_up.res2.1/__module.model.backbone.bottom_up.res2.1.conv1
  %217 : int[] = prim::ListConstruct(%111, %111), scope: __module.model.backbone/__module.model.backbone.bottom_up/__module.model.backbone.bottom_up.res2/__module.model.backbone.bottom_up.res2.1/__module.model.backbone.bottom_up.res2.1.conv1
  %218 : int[] = prim::ListConstruct(%113, %113), scope: __module.model.backbone/__module.model.backbone.bottom_up/__module.model.backbone.bottom_up.res2/__module.model.backbone.bottom_up.res2.1/__module.model.backbone.bottom_up.res2.1.conv1
  %input.13 : Float(1, 64, 272, 200, strides=[3481600, 54400, 200, 1], requires_grad=0, device=cuda:0) = aten::_convolution(%x.13, %weight.131, %108, %215, %216, %217, %112, %218, %111, %112, %112, %114, %114), scope: __module.model.backbone/__module.model.backbone.bottom_up/__module.model.backbone.bottom_up.res2/__module.model.backbone.bottom_up.res2.1/__module.model.backbone.bottom_up.res2.1.conv1 # /home/tbelldev/workspace/detectron2/detectron2/detectron2/layers/wrappers.py:113:0
  %running_var.117 : Tensor = prim::GetAttr[name="running_var"](%norm.11)
  %running_mean.117 : Tensor = prim::GetAttr[name="running_mean"](%norm.11)
  %bias.121 : Tensor = prim::GetAttr[name="bias"](%norm.11)
  %weight.133 : Tensor = prim::GetAttr[name="weight"](%norm.11)
  %out.9 : Float(1, 64, 272, 200, strides=[3481600, 54400, 200, 1], requires_grad=0, device=cuda:0) = aten::batch_norm(%input.13, %weight.133, %bias.121, %running_mean.117, %running_var.117, %112, %116, %115, %114), scope: __module.model.backbone/__module.model.backbone.bottom_up/__module.model.backbone.bottom_up.res2/__module.model.backbone.bottom_up.res2.1/__module.model.backbone.bottom_up.res2.1.conv1/__module.model.backbone.bottom_up.res2.1.conv1.norm # /home/tbelldev/anaconda3/envs/autolabeling/lib/python3.8/site-packages/torch/nn/functional.py:2421:0
  %x.15 : Float(1, 64, 272, 200, strides=[3481600, 54400, 200, 1], requires_grad=0, device=cuda:0) = aten::relu_(%out.9), scope: __module.model.backbone/__module.model.backbone.bottom_up/__module.model.backbone.bottom_up.res2/__module.model.backbone.bottom_up.res2.1 # /home/tbelldev/workspace/detectron2/detectron2/detectron2/modeling/backbone/resnet.py:196:0
  %norm.13 : __torch__.detectron2.layers.batch_norm.___torch_mangle_18.FrozenBatchNorm2d = prim::GetAttr[name="norm"](%conv2.3)
  %weight.135 : Tensor = prim::GetAttr[name="weight"](%conv2.3)
  %228 : int[] = prim::ListConstruct(%111, %111), scope: __module.model.backbone/__module.model.backbone.bottom_up/__module.model.backbone.bottom_up.res2/__module.model.backbone.bottom_up.res2.1/__module.model.backbone.bottom_up.res2.1.conv2
  %229 : int[] = prim::ListConstruct(%111, %111), scope: __module.model.backbone/__module.model.backbone.bottom_up/__module.model.backbone.bottom_up.res2/__module.model.backbone.bottom_up.res2.1/__module.model.backbone.bottom_up.res2.1.conv2
  %230 : int[] = prim::ListConstruct(%111, %111), scope: __module.model.backbone/__module.model.backbone.bottom_up/__module.model.backbone.bottom_up.res2/__module.model.backbone.bottom_up.res2.1/__module.model.backbone.bottom_up.res2.1.conv2
  %231 : int[] = prim::ListConstruct(%113, %113), scope: __module.model.backbone/__module.model.backbone.bottom_up/__module.model.backbone.bottom_up.res2/__module.model.backbone.bottom_up.res2.1/__module.model.backbone.bottom_up.res2.1.conv2
  %input.15 : Float(1, 64, 272, 200, strides=[3481600, 54400, 200, 1], requires_grad=0, device=cuda:0) = aten::_convolution(%x.15, %weight.135, %108, %228, %229, %230, %112, %231, %111, %112, %112, %114, %114), scope: __module.model.backbone/__module.model.backbone.bottom_up/__module.model.backbone.bottom_up.res2/__module.model.backbone.bottom_up.res2.1/__module.model.backbone.bottom_up.res2.1.conv2 # /home/tbelldev/workspace/detectron2/detectron2/detectron2/layers/wrappers.py:113:0
  %running_var.119 : Tensor = prim::GetAttr[name="running_var"](%norm.13)
  %running_mean.119 : Tensor = prim::GetAttr[name="running_mean"](%norm.13)
  %bias.123 : Tensor = prim::GetAttr[name="bias"](%norm.13)
  %weight.137 : Tensor = prim::GetAttr[name="weight"](%norm.13)
  %out.11 : Float(1, 64, 272, 200, strides=[3481600, 54400, 200, 1], requires_grad=0, device=cuda:0) = aten::batch_norm(%input.15, %weight.137, %bias.123, %running_mean.119, %running_var.119, %112, %116, %115, %114), scope: __module.model.backbone/__module.model.backbone.bottom_up/__module.model.backbone.bottom_up.res2/__module.model.backbone.bottom_up.res2.1/__module.model.backbone.bottom_up.res2.1.conv2/__module.model.backbone.bottom_up.res2.1.conv2.norm # /home/tbelldev/anaconda3/envs/autolabeling/lib/python3.8/site-packages/torch/nn/functional.py:2421:0
  %x.17 : Float(1, 64, 272, 200, strides=[3481600, 54400, 200, 1], requires_grad=0, device=cuda:0) = aten::relu_(%out.11), scope: __module.model.backbone/__module.model.backbone.bottom_up/__module.model.backbone.bottom_up.res2/__module.model.backbone.bottom_up.res2.1 # /home/tbelldev/workspace/detectron2/detectron2/detectron2/modeling/backbone/resnet.py:199:0
  %norm.15 : __torch__.detectron2.layers.batch_norm.___torch_mangle_20.FrozenBatchNorm2d = prim::GetAttr[name="norm"](%conv3.3)
  %weight.139 : Tensor = prim::GetAttr[name="weight"](%conv3.3)
  %241 : int[] = prim::ListConstruct(%111, %111), scope: __module.model.backbone/__module.model.backbone.bottom_up/__module.model.backbone.bottom_up.res2/__module.model.backbone.bottom_up.res2.1/__module.model.backbone.bottom_up.res2.1.conv3
  %242 : int[] = prim::ListConstruct(%113, %113), scope: __module.model.backbone/__module.model.backbone.bottom_up/__module.model.backbone.bottom_up.res2/__module.model.backbone.bottom_up.res2.1/__module.model.backbone.bottom_up.res2.1.conv3
  %243 : int[] = prim::ListConstruct(%111, %111), scope: __module.model.backbone/__module.model.backbone.bottom_up/__module.model.backbone.bottom_up.res2/__module.model.backbone.bottom_up.res2.1/__module.model.backbone.bottom_up.res2.1.conv3
  %244 : int[] = prim::ListConstruct(%113, %113), scope: __module.model.backbone/__module.model.backbone.bottom_up/__module.model.backbone.bottom_up.res2/__module.model.backbone.bottom_up.res2.1/__module.model.backbone.bottom_up.res2.1.conv3
  %input.17 : Float(1, 256, 272, 200, strides=[13926400, 54400, 200, 1], requires_grad=0, device=cuda:0) = aten::_convolution(%x.17, %weight.139, %108, %241, %242, %243, %112, %244, %111, %112, %112, %114, %114), scope: __module.model.backbone/__module.model.backbone.bottom_up/__module.model.backbone.bottom_up.res2/__module.model.backbone.bottom_up.res2.1/__module.model.backbone.bottom_up.res2.1.conv3 # /home/tbelldev/workspace/detectron2/detectron2/detectron2/layers/wrappers.py:113:0
  %running_var.121 : Tensor = prim::GetAttr[name="running_var"](%norm.15)
  %running_mean.121 : Tensor = prim::GetAttr[name="running_mean"](%norm.15)
  %bias.125 : Tensor = prim::GetAttr[name="bias"](%norm.15)
  %weight.141 : Tensor = prim::GetAttr[name="weight"](%norm.15)
  %out.13 : Float(1, 256, 272, 200, strides=[13926400, 54400, 200, 1], requires_grad=0, device=cuda:0) = aten::batch_norm(%input.17, %weight.141, %bias.125, %running_mean.121, %running_var.121, %112, %116, %115, %114), scope: __module.model.backbone/__module.model.backbone.bottom_up/__module.model.backbone.bottom_up.res2/__module.model.backbone.bottom_up.res2.1/__module.model.backbone.bottom_up.res2.1.conv3/__module.model.backbone.bottom_up.res2.1.conv3.norm # /home/tbelldev/anaconda3/envs/autolabeling/lib/python3.8/site-packages/torch/nn/functional.py:2421:0
  %out.15 : Float(1, 256, 272, 200, strides=[13926400, 54400, 200, 1], requires_grad=0, device=cuda:0) = aten::add_(%out.13, %x.13, %111), scope: __module.model.backbone/__module.model.backbone.bottom_up/__module.model.backbone.bottom_up.res2/__module.model.backbone.bottom_up.res2.1 # /home/tbelldev/workspace/detectron2/detectron2/detectron2/modeling/backbone/resnet.py:208:0
  %x.19 : Float(1, 256, 272, 200, strides=[13926400, 54400, 200, 1], requires_grad=0, device=cuda:0) = aten::relu_(%out.15), scope: __module.model.backbone/__module.model.backbone.bottom_up/__module.model.backbone.bottom_up.res2/__module.model.backbone.bottom_up.res2.1 # /home/tbelldev/workspace/detectron2/detectron2/detectron2/modeling/backbone/resnet.py:209:0
  %conv3.5 : __torch__.detectron2.layers.wrappers.___torch_mangle_28.Conv2d = prim::GetAttr[name="conv3"](%_2.1)
  %conv2.5 : __torch__.detectron2.layers.wrappers.___torch_mangle_26.Conv2d = prim::GetAttr[name="conv2"](%_2.1)
  %conv1.7 : __torch__.detectron2.layers.wrappers.___torch_mangle_24.Conv2d = prim::GetAttr[name="conv1"](%_2.1)
  %norm.17 : __torch__.detectron2.layers.batch_norm.___torch_mangle_23.FrozenBatchNorm2d = prim::GetAttr[name="norm"](%conv1.7)
  %weight.143 : Tensor = prim::GetAttr[name="weight"](%conv1.7)
  %258 : int[] = prim::ListConstruct(%111, %111), scope: __module.model.backbone/__module.model.backbone.bottom_up/__module.model.backbone.bottom_up.res2/__module.model.backbone.bottom_up.res2.2/__module.model.backbone.bottom_up.res2.2.conv1
  %259 : int[] = prim::ListConstruct(%113, %113), scope: __module.model.backbone/__module.model.backbone.bottom_up/__module.model.backbone.bottom_up.res2/__module.model.backbone.bottom_up.res2.2/__module.model.backbone.bottom_up.res2.2.conv1
  %260 : int[] = prim::ListConstruct(%111, %111), scope: __module.model.backbone/__module.model.backbone.bottom_up/__module.model.backbone.bottom_up.res2/__module.model.backbone.bottom_up.res2.2/__module.model.backbone.bottom_up.res2.2.conv1
  %261 : int[] = prim::ListConstruct(%113, %113), scope: __module.model.backbone/__module.model.backbone.bottom_up/__module.model.backbone.bottom_up.res2/__module.model.backbone.bottom_up.res2.2/__module.model.backbone.bottom_up.res2.2.conv1
  %input.19 : Float(1, 64, 272, 200, strides=[3481600, 54400, 200, 1], requires_grad=0, device=cuda:0) = aten::_convolution(%x.19, %weight.143, %108, %258, %259, %260, %112, %261, %111, %112, %112, %114, %114), scope: __module.model.backbone/__module.model.backbone.bottom_up/__module.model.backbone.bottom_up.res2/__module.model.backbone.bottom_up.res2.2/__module.model.backbone.bottom_up.res2.2.conv1 # /home/tbelldev/workspace/detectron2/detectron2/detectron2/layers/wrappers.py:113:0
  %running_var.123 : Tensor = prim::GetAttr[name="running_var"](%norm.17)
  %running_mean.123 : Tensor = prim::GetAttr[name="running_mean"](%norm.17)
  %bias.127 : Tensor = prim::GetAttr[name="bias"](%norm.17)
  %weight.145 : Tensor = prim::GetAttr[name="weight"](%norm.17)
  %out.17 : Float(1, 64, 272, 200, strides=[3481600, 54400, 200, 1], requires_grad=0, device=cuda:0) = aten::batch_norm(%input.19, %weight.145, %bias.127, %running_mean.123, %running_var.123, %112, %116, %115, %114), scope: __module.model.backbone/__module.model.backbone.bottom_up/__module.model.backbone.bottom_up.res2/__module.model.backbone.bottom_up.res2.2/__module.model.backbone.bottom_up.res2.2.conv1/__module.model.backbone.bottom_up.res2.2.conv1.norm # /home/tbelldev/anaconda3/envs/autolabeling/lib/python3.8/site-packages/torch/nn/functional.py:2421:0
  %x.21 : Float(1, 64, 272, 200, strides=[3481600, 54400, 200, 1], requires_grad=0, device=cuda:0) = aten::relu_(%out.17), scope: __module.model.backbone/__module.model.backbone.bottom_up/__module.model.backbone.bottom_up.res2/__module.model.backbone.bottom_up.res2.2 # /home/tbelldev/workspace/detectron2/detectron2/detectron2/modeling/backbone/resnet.py:196:0
  %norm.19 : __torch__.detectron2.layers.batch_norm.___torch_mangle_25.FrozenBatchNorm2d = prim::GetAttr[name="norm"](%conv2.5)
  %weight.147 : Tensor = prim::GetAttr[name="weight"](%conv2.5)
  %271 : int[] = prim::ListConstruct(%111, %111), scope: __module.model.backbone/__module.model.backbone.bottom_up/__module.model.backbone.bottom_up.res2/__module.model.backbone.bottom_up.res2.2/__module.model.backbone.bottom_up.res2.2.conv2
  %272 : int[] = prim::ListConstruct(%111, %111), scope: __module.model.backbone/__module.model.backbone.bottom_up/__module.model.backbone.bottom_up.res2/__module.model.backbone.bottom_up.res2.2/__module.model.backbone.bottom_up.res2.2.conv2
  %273 : int[] = prim::ListConstruct(%111, %111), scope: __module.model.backbone/__module.model.backbone.bottom_up/__module.model.backbone.bottom_up.res2/__module.model.backbone.bottom_up.res2.2/__module.model.backbone.bottom_up.res2.2.conv2
  %274 : int[] = prim::ListConstruct(%113, %113), scope: __module.model.backbone/__module.model.backbone.bottom_up/__module.model.backbone.bottom_up.res2/__module.model.backbone.bottom_up.res2.2/__module.model.backbone.bottom_up.res2.2.conv2
  %input.21 : Float(1, 64, 272, 200, strides=[3481600, 54400, 200, 1], requires_grad=0, device=cuda:0) = aten::_convolution(%x.21, %weight.147, %108, %271, %272, %273, %112, %274, %111, %112, %112, %114, %114), scope: __module.model.backbone/__module.model.backbone.bottom_up/__module.model.backbone.bottom_up.res2/__module.model.backbone.bottom_up.res2.2/__module.model.backbone.bottom_up.res2.2.conv2 # /home/tbelldev/workspace/detectron2/detectron2/detectron2/layers/wrappers.py:113:0
  %running_var.125 : Tensor = prim::GetAttr[name="running_var"](%norm.19)
  %running_mean.125 : Tensor = prim::GetAttr[name="running_mean"](%norm.19)
  %bias.129 : Tensor = prim::GetAttr[name="bias"](%norm.19)
  %weight.149 : Tensor = prim::GetAttr[name="weight"](%norm.19)
  %out.19 : Float(1, 64, 272, 200, strides=[3481600, 54400, 200, 1], requires_grad=0, device=cuda:0) = aten::batch_norm(%input.21, %weight.149, %bias.129, %running_mean.125, %running_var.125, %112, %116, %115, %114), scope: __module.model.backbone/__module.model.backbone.bottom_up/__module.model.backbone.bottom_up.res2/__module.model.backbone.bottom_up.res2.2/__module.model.backbone.bottom_up.res2.2.conv2/__module.model.backbone.bottom_up.res2.2.conv2.norm # /home/tbelldev/anaconda3/envs/autolabeling/lib/python3.8/site-packages/torch/nn/functional.py:2421:0
  %x.23 : Float(1, 64, 272, 200, strides=[3481600, 54400, 200, 1], requires_grad=0, device=cuda:0) = aten::relu_(%out.19), scope: __module.model.backbone/__module.model.backbone.bottom_up/__module.model.backbone.bottom_up.res2/__module.model.backbone.bottom_up.res2.2 # /home/tbelldev/workspace/detectron2/detectron2/detectron2/modeling/backbone/resnet.py:199:0
  %norm.21 : __torch__.detectron2.layers.batch_norm.___torch_mangle_27.FrozenBatchNorm2d = prim::GetAttr[name="norm"](%conv3.5)
  %weight.151 : Tensor = prim::GetAttr[name="weight"](%conv3.5)
  %284 : int[] = prim::ListConstruct(%111, %111), scope: __module.model.backbone/__module.model.backbone.bottom_up/__module.model.backbone.bottom_up.res2/__module.model.backbone.bottom_up.res2.2/__module.model.backbone.bottom_up.res2.2.conv3
  %285 : int[] = prim::ListConstruct(%113, %113), scope: __module.model.backbone/__module.model.backbone.bottom_up/__module.model.backbone.bottom_up.res2/__module.model.backbone.bottom_up.res2.2/__module.model.backbone.bottom_up.res2.2.conv3
  %286 : int[] = prim::ListConstruct(%111, %111), scope: __module.model.backbone/__module.model.backbone.bottom_up/__module.model.backbone.bottom_up.res2/__module.model.backbone.bottom_up.res2.2/__module.model.backbone.bottom_up.res2.2.conv3
  %287 : int[] = prim::ListConstruct(%113, %113), scope: __module.model.backbone/__module.model.backbone.bottom_up/__module.model.backbone.bottom_up.res2/__module.model.backbone.bottom_up.res2.2/__module.model.backbone.bottom_up.res2.2.conv3
  %input.23 : Float(1, 256, 272, 200, strides=[13926400, 54400, 200, 1], requires_grad=0, device=cuda:0) = aten::_convolution(%x.23, %weight.151, %108, %284, %285, %286, %112, %287, %111, %112, %112, %114, %114), scope: __module.model.backbone/__module.model.backbone.bottom_up/__module.model.backbone.bottom_up.res2/__module.model.backbone.bottom_up.res2.2/__module.model.backbone.bottom_up.res2.2.conv3 # /home/tbelldev/workspace/detectron2/detectron2/detectron2/layers/wrappers.py:113:0
  %running_var.127 : Tensor = prim::GetAttr[name="running_var"](%norm.21)
  %running_mean.127 : Tensor = prim::GetAttr[name="running_mean"](%norm.21)
  %bias.131 : Tensor = prim::GetAttr[name="bias"](%norm.21)
  %weight.153 : Tensor = prim::GetAttr[name="weight"](%norm.21)
  %out.21 : Float(1, 256, 272, 200, strides=[13926400, 54400, 200, 1], requires_grad=0, device=cuda:0) = aten::batch_norm(%input.23, %weight.153, %bias.131, %running_mean.127, %running_var.127, %112, %116, %115, %114), scope: __module.model.backbone/__module.model.backbone.bottom_up/__module.model.backbone.bottom_up.res2/__module.model.backbone.bottom_up.res2.2/__module.model.backbone.bottom_up.res2.2.conv3/__module.model.backbone.bottom_up.res2.2.conv3.norm # /home/tbelldev/anaconda3/envs/autolabeling/lib/python3.8/site-packages/torch/nn/functional.py:2421:0
  %out.23 : Float(1, 256, 272, 200, strides=[13926400, 54400, 200, 1], requires_grad=0, device=cuda:0) = aten::add_(%out.21, %x.19, %111), scope: __module.model.backbone/__module.model.backbone.bottom_up/__module.model.backbone.bottom_up.res2/__module.model.backbone.bottom_up.res2.2 # /home/tbelldev/workspace/detectron2/detectron2/detectron2/modeling/backbone/resnet.py:208:0
  %x.25 : Float(1, 256, 272, 200, strides=[13926400, 54400, 200, 1], requires_grad=0, device=cuda:0) = aten::relu_(%out.23), scope: __module.model.backbone/__module.model.backbone.bottom_up/__module.model.backbone.bottom_up.res2/__module.model.backbone.bottom_up.res2.2 # /home/tbelldev/workspace/detectron2/detectron2/detectron2/modeling/backbone/resnet.py:209:0
  %_3.1 : __torch__.detectron2.modeling.backbone.resnet.___torch_mangle_59.BottleneckBlock = prim::GetAttr[name="3"](%res3)
  %_2.3 : __torch__.detectron2.modeling.backbone.resnet.___torch_mangle_52.BottleneckBlock = prim::GetAttr[name="2"](%res3)
  %_1.3 : __torch__.detectron2.modeling.backbone.resnet.___torch_mangle_45.BottleneckBlock = prim::GetAttr[name="1"](%res3)
  %_0.3 : __torch__.detectron2.modeling.backbone.resnet.___torch_mangle_38.BottleneckBlock = prim::GetAttr[name="0"](%res3)
  %shortcut.11 : __torch__.detectron2.layers.wrappers.___torch_mangle_31.Conv2d = prim::GetAttr[name="shortcut"](%_0.3)
  %conv3.7 : __torch__.detectron2.layers.wrappers.___torch_mangle_37.Conv2d = prim::GetAttr[name="conv3"](%_0.3)
  %conv2.7 : __torch__.detectron2.layers.wrappers.___torch_mangle_35.Conv2d = prim::GetAttr[name="conv2"](%_0.3)
  %conv1.9 : __torch__.detectron2.layers.wrappers.___torch_mangle_33.Conv2d = prim::GetAttr[name="conv1"](%_0.3)
  %norm.23 : __torch__.detectron2.layers.batch_norm.___torch_mangle_32.FrozenBatchNorm2d = prim::GetAttr[name="norm"](%conv1.9)
  %weight.155 : Tensor = prim::GetAttr[name="weight"](%conv1.9)
  %306 : int[] = prim::ListConstruct(%109, %109), scope: __module.model.backbone/__module.model.backbone.bottom_up/__module.model.backbone.bottom_up.res3/__module.model.backbone.bottom_up.res3.0/__module.model.backbone.bottom_up.res3.0.conv1
  %307 : int[] = prim::ListConstruct(%113, %113), scope: __module.model.backbone/__module.model.backbone.bottom_up/__module.model.backbone.bottom_up.res3/__module.model.backbone.bottom_up.res3.0/__module.model.backbone.bottom_up.res3.0.conv1
  %308 : int[] = prim::ListConstruct(%111, %111), scope: __module.model.backbone/__module.model.backbone.bottom_up/__module.model.backbone.bottom_up.res3/__module.model.backbone.bottom_up.res3.0/__module.model.backbone.bottom_up.res3.0.conv1
  %309 : int[] = prim::ListConstruct(%113, %113), scope: __module.model.backbone/__module.model.backbone.bottom_up/__module.model.backbone.bottom_up.res3/__module.model.backbone.bottom_up.res3.0/__module.model.backbone.bottom_up.res3.0.conv1
  %input.25 : Float(1, 128, 136, 100, strides=[1740800, 13600, 100, 1], requires_grad=0, device=cuda:0) = aten::_convolution(%x.25, %weight.155, %108, %306, %307, %308, %112, %309, %111, %112, %112, %114, %114), scope: __module.model.backbone/__module.model.backbone.bottom_up/__module.model.backbone.bottom_up.res3/__module.model.backbone.bottom_up.res3.0/__module.model.backbone.bottom_up.res3.0.conv1 # /home/tbelldev/workspace/detectron2/detectron2/detectron2/layers/wrappers.py:113:0
  %running_var.129 : Tensor = prim::GetAttr[name="running_var"](%norm.23)
  %running_mean.129 : Tensor = prim::GetAttr[name="running_mean"](%norm.23)
  %bias.133 : Tensor = prim::GetAttr[name="bias"](%norm.23)
  %weight.157 : Tensor = prim::GetAttr[name="weight"](%norm.23)
  %out.25 : Float(1, 128, 136, 100, strides=[1740800, 13600, 100, 1], requires_grad=0, device=cuda:0) = aten::batch_norm(%input.25, %weight.157, %bias.133, %running_mean.129, %running_var.129, %112, %116, %115, %114), scope: __module.model.backbone/__module.model.backbone.bottom_up/__module.model.backbone.bottom_up.res3/__module.model.backbone.bottom_up.res3.0/__module.model.backbone.bottom_up.res3.0.conv1/__module.model.backbone.bottom_up.res3.0.conv1.norm # /home/tbelldev/anaconda3/envs/autolabeling/lib/python3.8/site-packages/torch/nn/functional.py:2421:0
  %x.27 : Float(1, 128, 136, 100, strides=[1740800, 13600, 100, 1], requires_grad=0, device=cuda:0) = aten::relu_(%out.25), scope: __module.model.backbone/__module.model.backbone.bottom_up/__module.model.backbone.bottom_up.res3/__module.model.backbone.bottom_up.res3.0 # /home/tbelldev/workspace/detectron2/detectron2/detectron2/modeling/backbone/resnet.py:196:0
  %norm.25 : __torch__.detectron2.layers.batch_norm.___torch_mangle_34.FrozenBatchNorm2d = prim::GetAttr[name="norm"](%conv2.7)
  %weight.159 : Tensor = prim::GetAttr[name="weight"](%conv2.7)
  %319 : int[] = prim::ListConstruct(%111, %111), scope: __module.model.backbone/__module.model.backbone.bottom_up/__module.model.backbone.bottom_up.res3/__module.model.backbone.bottom_up.res3.0/__module.model.backbone.bottom_up.res3.0.conv2
  %320 : int[] = prim::ListConstruct(%111, %111), scope: __module.model.backbone/__module.model.backbone.bottom_up/__module.model.backbone.bottom_up.res3/__module.model.backbone.bottom_up.res3.0/__module.model.backbone.bottom_up.res3.0.conv2
  %321 : int[] = prim::ListConstruct(%111, %111), scope: __module.model.backbone/__module.model.backbone.bottom_up/__module.model.backbone.bottom_up.res3/__module.model.backbone.bottom_up.res3.0/__module.model.backbone.bottom_up.res3.0.conv2
  %322 : int[] = prim::ListConstruct(%113, %113), scope: __module.model.backbone/__module.model.backbone.bottom_up/__module.model.backbone.bottom_up.res3/__module.model.backbone.bottom_up.res3.0/__module.model.backbone.bottom_up.res3.0.conv2
  %input.27 : Float(1, 128, 136, 100, strides=[1740800, 13600, 100, 1], requires_grad=0, device=cuda:0) = aten::_convolution(%x.27, %weight.159, %108, %319, %320, %321, %112, %322, %111, %112, %112, %114, %114), scope: __module.model.backbone/__module.model.backbone.bottom_up/__module.model.backbone.bottom_up.res3/__module.model.backbone.bottom_up.res3.0/__module.model.backbone.bottom_up.res3.0.conv2 # /home/tbelldev/workspace/detectron2/detectron2/detectron2/layers/wrappers.py:113:0
  %running_var.131 : Tensor = prim::GetAttr[name="running_var"](%norm.25)
  %running_mean.131 : Tensor = prim::GetAttr[name="running_mean"](%norm.25)
  %bias.135 : Tensor = prim::GetAttr[name="bias"](%norm.25)
  %weight.161 : Tensor = prim::GetAttr[name="weight"](%norm.25)
  %out.27 : Float(1, 128, 136, 100, strides=[1740800, 13600, 100, 1], requires_grad=0, device=cuda:0) = aten::batch_norm(%input.27, %weight.161, %bias.135, %running_mean.131, %running_var.131, %112, %116, %115, %114), scope: __module.model.backbone/__module.model.backbone.bottom_up/__module.model.backbone.bottom_up.res3/__module.model.backbone.bottom_up.res3.0/__module.model.backbone.bottom_up.res3.0.conv2/__module.model.backbone.bottom_up.res3.0.conv2.norm # /home/tbelldev/anaconda3/envs/autolabeling/lib/python3.8/site-packages/torch/nn/functional.py:2421:0
  %x.29 : Float(1, 128, 136, 100, strides=[1740800, 13600, 100, 1], requires_grad=0, device=cuda:0) = aten::relu_(%out.27), scope: __module.model.backbone/__module.model.backbone.bottom_up/__module.model.backbone.bottom_up.res3/__module.model.backbone.bottom_up.res3.0 # /home/tbelldev/workspace/detectron2/detectron2/detectron2/modeling/backbone/resnet.py:199:0
  %norm.27 : __torch__.detectron2.layers.batch_norm.___torch_mangle_36.FrozenBatchNorm2d = prim::GetAttr[name="norm"](%conv3.7)
  %weight.163 : Tensor = prim::GetAttr[name="weight"](%conv3.7)
  %332 : int[] = prim::ListConstruct(%111, %111), scope: __module.model.backbone/__module.model.backbone.bottom_up/__module.model.backbone.bottom_up.res3/__module.model.backbone.bottom_up.res3.0/__module.model.backbone.bottom_up.res3.0.conv3
  %333 : int[] = prim::ListConstruct(%113, %113), scope: __module.model.backbone/__module.model.backbone.bottom_up/__module.model.backbone.bottom_up.res3/__module.model.backbone.bottom_up.res3.0/__module.model.backbone.bottom_up.res3.0.conv3
  %334 : int[] = prim::ListConstruct(%111, %111), scope: __module.model.backbone/__module.model.backbone.bottom_up/__module.model.backbone.bottom_up.res3/__module.model.backbone.bottom_up.res3.0/__module.model.backbone.bottom_up.res3.0.conv3
  %335 : int[] = prim::ListConstruct(%113, %113), scope: __module.model.backbone/__module.model.backbone.bottom_up/__module.model.backbone.bottom_up.res3/__module.model.backbone.bottom_up.res3.0/__module.model.backbone.bottom_up.res3.0.conv3
  %input.29 : Float(1, 512, 136, 100, strides=[6963200, 13600, 100, 1], requires_grad=0, device=cuda:0) = aten::_convolution(%x.29, %weight.163, %108, %332, %333, %334, %112, %335, %111, %112, %112, %114, %114), scope: __module.model.backbone/__module.model.backbone.bottom_up/__module.model.backbone.bottom_up.res3/__module.model.backbone.bottom_up.res3.0/__module.model.backbone.bottom_up.res3.0.conv3 # /home/tbelldev/workspace/detectron2/detectron2/detectron2/layers/wrappers.py:113:0
  %running_var.133 : Tensor = prim::GetAttr[name="running_var"](%norm.27)
  %running_mean.133 : Tensor = prim::GetAttr[name="running_mean"](%norm.27)
  %bias.137 : Tensor = prim::GetAttr[name="bias"](%norm.27)
  %weight.165 : Tensor = prim::GetAttr[name="weight"](%norm.27)
  %out.29 : Float(1, 512, 136, 100, strides=[6963200, 13600, 100, 1], requires_grad=0, device=cuda:0) = aten::batch_norm(%input.29, %weight.165, %bias.137, %running_mean.133, %running_var.133, %112, %116, %115, %114), scope: __module.model.backbone/__module.model.backbone.bottom_up/__module.model.backbone.bottom_up.res3/__module.model.backbone.bottom_up.res3.0/__module.model.backbone.bottom_up.res3.0.conv3/__module.model.backbone.bottom_up.res3.0.conv3.norm # /home/tbelldev/anaconda3/envs/autolabeling/lib/python3.8/site-packages/torch/nn/functional.py:2421:0
  %norm.29 : __torch__.detectron2.layers.batch_norm.___torch_mangle_30.FrozenBatchNorm2d = prim::GetAttr[name="norm"](%shortcut.11)
  %weight.167 : Tensor = prim::GetAttr[name="weight"](%shortcut.11)
  %344 : int[] = prim::ListConstruct(%109, %109), scope: __module.model.backbone/__module.model.backbone.bottom_up/__module.model.backbone.bottom_up.res3/__module.model.backbone.bottom_up.res3.0/__module.model.backbone.bottom_up.res3.0.shortcut
  %345 : int[] = prim::ListConstruct(%113, %113), scope: __module.model.backbone/__module.model.backbone.bottom_up/__module.model.backbone.bottom_up.res3/__module.model.backbone.bottom_up.res3.0/__module.model.backbone.bottom_up.res3.0.shortcut
  %346 : int[] = prim::ListConstruct(%111, %111), scope: __module.model.backbone/__module.model.backbone.bottom_up/__module.model.backbone.bottom_up.res3/__module.model.backbone.bottom_up.res3.0/__module.model.backbone.bottom_up.res3.0.shortcut
  %347 : int[] = prim::ListConstruct(%113, %113), scope: __module.model.backbone/__module.model.backbone.bottom_up/__module.model.backbone.bottom_up.res3/__module.model.backbone.bottom_up.res3.0/__module.model.backbone.bottom_up.res3.0.shortcut
  %input.31 : Float(1, 512, 136, 100, strides=[6963200, 13600, 100, 1], requires_grad=0, device=cuda:0) = aten::_convolution(%x.25, %weight.167, %108, %344, %345, %346, %112, %347, %111, %112, %112, %114, %114), scope: __module.model.backbone/__module.model.backbone.bottom_up/__module.model.backbone.bottom_up.res3/__module.model.backbone.bottom_up.res3.0/__module.model.backbone.bottom_up.res3.0.shortcut # /home/tbelldev/workspace/detectron2/detectron2/detectron2/layers/wrappers.py:113:0
  %running_var.135 : Tensor = prim::GetAttr[name="running_var"](%norm.29)
  %running_mean.135 : Tensor = prim::GetAttr[name="running_mean"](%norm.29)
  %bias.139 : Tensor = prim::GetAttr[name="bias"](%norm.29)
  %weight.169 : Tensor = prim::GetAttr[name="weight"](%norm.29)
  %shortcut.3 : Float(1, 512, 136, 100, strides=[6963200, 13600, 100, 1], requires_grad=0, device=cuda:0) = aten::batch_norm(%input.31, %weight.169, %bias.139, %running_mean.135, %running_var.135, %112, %116, %115, %114), scope: __module.model.backbone/__module.model.backbone.bottom_up/__module.model.backbone.bottom_up.res3/__module.model.backbone.bottom_up.res3.0/__module.model.backbone.bottom_up.res3.0.shortcut/__module.model.backbone.bottom_up.res3.0.shortcut.norm # /home/tbelldev/anaconda3/envs/autolabeling/lib/python3.8/site-packages/torch/nn/functional.py:2421:0
  %out.31 : Float(1, 512, 136, 100, strides=[6963200, 13600, 100, 1], requires_grad=0, device=cuda:0) = aten::add_(%out.29, %shortcut.3, %111), scope: __module.model.backbone/__module.model.backbone.bottom_up/__module.model.backbone.bottom_up.res3/__module.model.backbone.bottom_up.res3.0 # /home/tbelldev/workspace/detectron2/detectron2/detectron2/modeling/backbone/resnet.py:208:0
  %x.31 : Float(1, 512, 136, 100, strides=[6963200, 13600, 100, 1], requires_grad=0, device=cuda:0) = aten::relu_(%out.31), scope: __module.model.backbone/__module.model.backbone.bottom_up/__module.model.backbone.bottom_up.res3/__module.model.backbone.bottom_up.res3.0 # /home/tbelldev/workspace/detectron2/detectron2/detectron2/modeling/backbone/resnet.py:209:0
  %conv3.9 : __torch__.detectron2.layers.wrappers.___torch_mangle_44.Conv2d = prim::GetAttr[name="conv3"](%_1.3)
  %conv2.9 : __torch__.detectron2.layers.wrappers.___torch_mangle_42.Conv2d = prim::GetAttr[name="conv2"](%_1.3)
  %conv1.11 : __torch__.detectron2.layers.wrappers.___torch_mangle_40.Conv2d = prim::GetAttr[name="conv1"](%_1.3)
  %norm.31 : __torch__.detectron2.layers.batch_norm.___torch_mangle_39.FrozenBatchNorm2d = prim::GetAttr[name="norm"](%conv1.11)
  %weight.171 : Tensor = prim::GetAttr[name="weight"](%conv1.11)
  %361 : int[] = prim::ListConstruct(%111, %111), scope: __module.model.backbone/__module.model.backbone.bottom_up/__module.model.backbone.bottom_up.res3/__module.model.backbone.bottom_up.res3.1/__module.model.backbone.bottom_up.res3.1.conv1
  %362 : int[] = prim::ListConstruct(%113, %113), scope: __module.model.backbone/__module.model.backbone.bottom_up/__module.model.backbone.bottom_up.res3/__module.model.backbone.bottom_up.res3.1/__module.model.backbone.bottom_up.res3.1.conv1
  %363 : int[] = prim::ListConstruct(%111, %111), scope: __module.model.backbone/__module.model.backbone.bottom_up/__module.model.backbone.bottom_up.res3/__module.model.backbone.bottom_up.res3.1/__module.model.backbone.bottom_up.res3.1.conv1
  %364 : int[] = prim::ListConstruct(%113, %113), scope: __module.model.backbone/__module.model.backbone.bottom_up/__module.model.backbone.bottom_up.res3/__module.model.backbone.bottom_up.res3.1/__module.model.backbone.bottom_up.res3.1.conv1
  %input.33 : Float(1, 128, 136, 100, strides=[1740800, 13600, 100, 1], requires_grad=0, device=cuda:0) = aten::_convolution(%x.31, %weight.171, %108, %361, %362, %363, %112, %364, %111, %112, %112, %114, %114), scope: __module.model.backbone/__module.model.backbone.bottom_up/__module.model.backbone.bottom_up.res3/__module.model.backbone.bottom_up.res3.1/__module.model.backbone.bottom_up.res3.1.conv1 # /home/tbelldev/workspace/detectron2/detectron2/detectron2/layers/wrappers.py:113:0
  %running_var.137 : Tensor = prim::GetAttr[name="running_var"](%norm.31)
  %running_mean.137 : Tensor = prim::GetAttr[name="running_mean"](%norm.31)
  %bias.141 : Tensor = prim::GetAttr[name="bias"](%norm.31)
  %weight.173 : Tensor = prim::GetAttr[name="weight"](%norm.31)
  %out.33 : Float(1, 128, 136, 100, strides=[1740800, 13600, 100, 1], requires_grad=0, device=cuda:0) = aten::batch_norm(%input.33, %weight.173, %bias.141, %running_mean.137, %running_var.137, %112, %116, %115, %114), scope: __module.model.backbone/__module.model.backbone.bottom_up/__module.model.backbone.bottom_up.res3/__module.model.backbone.bottom_up.res3.1/__module.model.backbone.bottom_up.res3.1.conv1/__module.model.backbone.bottom_up.res3.1.conv1.norm # /home/tbelldev/anaconda3/envs/autolabeling/lib/python3.8/site-packages/torch/nn/functional.py:2421:0
  %x.33 : Float(1, 128, 136, 100, strides=[1740800, 13600, 100, 1], requires_grad=0, device=cuda:0) = aten::relu_(%out.33), scope: __module.model.backbone/__module.model.backbone.bottom_up/__module.model.backbone.bottom_up.res3/__module.model.backbone.bottom_up.res3.1 # /home/tbelldev/workspace/detectron2/detectron2/detectron2/modeling/backbone/resnet.py:196:0
  %norm.33 : __torch__.detectron2.layers.batch_norm.___torch_mangle_41.FrozenBatchNorm2d = prim::GetAttr[name="norm"](%conv2.9)
  %weight.175 : Tensor = prim::GetAttr[name="weight"](%conv2.9)
  %374 : int[] = prim::ListConstruct(%111, %111), scope: __module.model.backbone/__module.model.backbone.bottom_up/__module.model.backbone.bottom_up.res3/__module.model.backbone.bottom_up.res3.1/__module.model.backbone.bottom_up.res3.1.conv2
  %375 : int[] = prim::ListConstruct(%111, %111), scope: __module.model.backbone/__module.model.backbone.bottom_up/__module.model.backbone.bottom_up.res3/__module.model.backbone.bottom_up.res3.1/__module.model.backbone.bottom_up.res3.1.conv2
  %376 : int[] = prim::ListConstruct(%111, %111), scope: __module.model.backbone/__module.model.backbone.bottom_up/__module.model.backbone.bottom_up.res3/__module.model.backbone.bottom_up.res3.1/__module.model.backbone.bottom_up.res3.1.conv2
  %377 : int[] = prim::ListConstruct(%113, %113), scope: __module.model.backbone/__module.model.backbone.bottom_up/__module.model.backbone.bottom_up.res3/__module.model.backbone.bottom_up.res3.1/__module.model.backbone.bottom_up.res3.1.conv2
  %input.35 : Float(1, 128, 136, 100, strides=[1740800, 13600, 100, 1], requires_grad=0, device=cuda:0) = aten::_convolution(%x.33, %weight.175, %108, %374, %375, %376, %112, %377, %111, %112, %112, %114, %114), scope: __module.model.backbone/__module.model.backbone.bottom_up/__module.model.backbone.bottom_up.res3/__module.model.backbone.bottom_up.res3.1/__module.model.backbone.bottom_up.res3.1.conv2 # /home/tbelldev/workspace/detectron2/detectron2/detectron2/layers/wrappers.py:113:0
  %running_var.139 : Tensor = prim::GetAttr[name="running_var"](%norm.33)
  %running_mean.139 : Tensor = prim::GetAttr[name="running_mean"](%norm.33)
  %bias.143 : Tensor = prim::GetAttr[name="bias"](%norm.33)
  %weight.177 : Tensor = prim::GetAttr[name="weight"](%norm.33)
  %out.35 : Float(1, 128, 136, 100, strides=[1740800, 13600, 100, 1], requires_grad=0, device=cuda:0) = aten::batch_norm(%input.35, %weight.177, %bias.143, %running_mean.139, %running_var.139, %112, %116, %115, %114), scope: __module.model.backbone/__module.model.backbone.bottom_up/__module.model.backbone.bottom_up.res3/__module.model.backbone.bottom_up.res3.1/__module.model.backbone.bottom_up.res3.1.conv2/__module.model.backbone.bottom_up.res3.1.conv2.norm # /home/tbelldev/anaconda3/envs/autolabeling/lib/python3.8/site-packages/torch/nn/functional.py:2421:0
  %x.35 : Float(1, 128, 136, 100, strides=[1740800, 13600, 100, 1], requires_grad=0, device=cuda:0) = aten::relu_(%out.35), scope: __module.model.backbone/__module.model.backbone.bottom_up/__module.model.backbone.bottom_up.res3/__module.model.backbone.bottom_up.res3.1 # /home/tbelldev/workspace/detectron2/detectron2/detectron2/modeling/backbone/resnet.py:199:0
  %norm.35 : __torch__.detectron2.layers.batch_norm.___torch_mangle_43.FrozenBatchNorm2d = prim::GetAttr[name="norm"](%conv3.9)
  %weight.179 : Tensor = prim::GetAttr[name="weight"](%conv3.9)
  %387 : int[] = prim::ListConstruct(%111, %111), scope: __module.model.backbone/__module.model.backbone.bottom_up/__module.model.backbone.bottom_up.res3/__module.model.backbone.bottom_up.res3.1/__module.model.backbone.bottom_up.res3.1.conv3
  %388 : int[] = prim::ListConstruct(%113, %113), scope: __module.model.backbone/__module.model.backbone.bottom_up/__module.model.backbone.bottom_up.res3/__module.model.backbone.bottom_up.res3.1/__module.model.backbone.bottom_up.res3.1.conv3
  %389 : int[] = prim::ListConstruct(%111, %111), scope: __module.model.backbone/__module.model.backbone.bottom_up/__module.model.backbone.bottom_up.res3/__module.model.backbone.bottom_up.res3.1/__module.model.backbone.bottom_up.res3.1.conv3
  %390 : int[] = prim::ListConstruct(%113, %113), scope: __module.model.backbone/__module.model.backbone.bottom_up/__module.model.backbone.bottom_up.res3/__module.model.backbone.bottom_up.res3.1/__module.model.backbone.bottom_up.res3.1.conv3
  %input.37 : Float(1, 512, 136, 100, strides=[6963200, 13600, 100, 1], requires_grad=0, device=cuda:0) = aten::_convolution(%x.35, %weight.179, %108, %387, %388, %389, %112, %390, %111, %112, %112, %114, %114), scope: __module.model.backbone/__module.model.backbone.bottom_up/__module.model.backbone.bottom_up.res3/__module.model.backbone.bottom_up.res3.1/__module.model.backbone.bottom_up.res3.1.conv3 # /home/tbelldev/workspace/detectron2/detectron2/detectron2/layers/wrappers.py:113:0
  %running_var.141 : Tensor = prim::GetAttr[name="running_var"](%norm.35)
  %running_mean.141 : Tensor = prim::GetAttr[name="running_mean"](%norm.35)
  %bias.145 : Tensor = prim::GetAttr[name="bias"](%norm.35)
  %weight.181 : Tensor = prim::GetAttr[name="weight"](%norm.35)
  %out.37 : Float(1, 512, 136, 100, strides=[6963200, 13600, 100, 1], requires_grad=0, device=cuda:0) = aten::batch_norm(%input.37, %weight.181, %bias.145, %running_mean.141, %running_var.141, %112, %116, %115, %114), scope: __module.model.backbone/__module.model.backbone.bottom_up/__module.model.backbone.bottom_up.res3/__module.model.backbone.bottom_up.res3.1/__module.model.backbone.bottom_up.res3.1.conv3/__module.model.backbone.bottom_up.res3.1.conv3.norm # /home/tbelldev/anaconda3/envs/autolabeling/lib/python3.8/site-packages/torch/nn/functional.py:2421:0
  %out.39 : Float(1, 512, 136, 100, strides=[6963200, 13600, 100, 1], requires_grad=0, device=cuda:0) = aten::add_(%out.37, %x.31, %111), scope: __module.model.backbone/__module.model.backbone.bottom_up/__module.model.backbone.bottom_up.res3/__module.model.backbone.bottom_up.res3.1 # /home/tbelldev/workspace/detectron2/detectron2/detectron2/modeling/backbone/resnet.py:208:0
  %x.37 : Float(1, 512, 136, 100, strides=[6963200, 13600, 100, 1], requires_grad=0, device=cuda:0) = aten::relu_(%out.39), scope: __module.model.backbone/__module.model.backbone.bottom_up/__module.model.backbone.bottom_up.res3/__module.model.backbone.bottom_up.res3.1 # /home/tbelldev/workspace/detectron2/detectron2/detectron2/modeling/backbone/resnet.py:209:0
  %conv3.11 : __torch__.detectron2.layers.wrappers.___torch_mangle_51.Conv2d = prim::GetAttr[name="conv3"](%_2.3)
  %conv2.11 : __torch__.detectron2.layers.wrappers.___torch_mangle_49.Conv2d = prim::GetAttr[name="conv2"](%_2.3)
  %conv1.13 : __torch__.detectron2.layers.wrappers.___torch_mangle_47.Conv2d = prim::GetAttr[name="conv1"](%_2.3)
  %norm.37 : __torch__.detectron2.layers.batch_norm.___torch_mangle_46.FrozenBatchNorm2d = prim::GetAttr[name="norm"](%conv1.13)
  %weight.183 : Tensor = prim::GetAttr[name="weight"](%conv1.13)
  %404 : int[] = prim::ListConstruct(%111, %111), scope: __module.model.backbone/__module.model.backbone.bottom_up/__module.model.backbone.bottom_up.res3/__module.model.backbone.bottom_up.res3.2/__module.model.backbone.bottom_up.res3.2.conv1
  %405 : int[] = prim::ListConstruct(%113, %113), scope: __module.model.backbone/__module.model.backbone.bottom_up/__module.model.backbone.bottom_up.res3/__module.model.backbone.bottom_up.res3.2/__module.model.backbone.bottom_up.res3.2.conv1
  %406 : int[] = prim::ListConstruct(%111, %111), scope: __module.model.backbone/__module.model.backbone.bottom_up/__module.model.backbone.bottom_up.res3/__module.model.backbone.bottom_up.res3.2/__module.model.backbone.bottom_up.res3.2.conv1
  %407 : int[] = prim::ListConstruct(%113, %113), scope: __module.model.backbone/__module.model.backbone.bottom_up/__module.model.backbone.bottom_up.res3/__module.model.backbone.bottom_up.res3.2/__module.model.backbone.bottom_up.res3.2.conv1
  %input.39 : Float(1, 128, 136, 100, strides=[1740800, 13600, 100, 1], requires_grad=0, device=cuda:0) = aten::_convolution(%x.37, %weight.183, %108, %404, %405, %406, %112, %407, %111, %112, %112, %114, %114), scope: __module.model.backbone/__module.model.backbone.bottom_up/__module.model.backbone.bottom_up.res3/__module.model.backbone.bottom_up.res3.2/__module.model.backbone.bottom_up.res3.2.conv1 # /home/tbelldev/workspace/detectron2/detectron2/detectron2/layers/wrappers.py:113:0
  %running_var.143 : Tensor = prim::GetAttr[name="running_var"](%norm.37)
  %running_mean.143 : Tensor = prim::GetAttr[name="running_mean"](%norm.37)
  %bias.147 : Tensor = prim::GetAttr[name="bias"](%norm.37)
  %weight.185 : Tensor = prim::GetAttr[name="weight"](%norm.37)
  %out.41 : Float(1, 128, 136, 100, strides=[1740800, 13600, 100, 1], requires_grad=0, device=cuda:0) = aten::batch_norm(%input.39, %weight.185, %bias.147, %running_mean.143, %running_var.143, %112, %116, %115, %114), scope: __module.model.backbone/__module.model.backbone.bottom_up/__module.model.backbone.bottom_up.res3/__module.model.backbone.bottom_up.res3.2/__module.model.backbone.bottom_up.res3.2.conv1/__module.model.backbone.bottom_up.res3.2.conv1.norm # /home/tbelldev/anaconda3/envs/autolabeling/lib/python3.8/site-packages/torch/nn/functional.py:2421:0
  %x.39 : Float(1, 128, 136, 100, strides=[1740800, 13600, 100, 1], requires_grad=0, device=cuda:0) = aten::relu_(%out.41), scope: __module.model.backbone/__module.model.backbone.bottom_up/__module.model.backbone.bottom_up.res3/__module.model.backbone.bottom_up.res3.2 # /home/tbelldev/workspace/detectron2/detectron2/detectron2/modeling/backbone/resnet.py:196:0
  %norm.39 : __torch__.detectron2.layers.batch_norm.___torch_mangle_48.FrozenBatchNorm2d = prim::GetAttr[name="norm"](%conv2.11)
  %weight.187 : Tensor = prim::GetAttr[name="weight"](%conv2.11)
  %417 : int[] = prim::ListConstruct(%111, %111), scope: __module.model.backbone/__module.model.backbone.bottom_up/__module.model.backbone.bottom_up.res3/__module.model.backbone.bottom_up.res3.2/__module.model.backbone.bottom_up.res3.2.conv2
  %418 : int[] = prim::ListConstruct(%111, %111), scope: __module.model.backbone/__module.model.backbone.bottom_up/__module.model.backbone.bottom_up.res3/__module.model.backbone.bottom_up.res3.2/__module.model.backbone.bottom_up.res3.2.conv2
  %419 : int[] = prim::ListConstruct(%111, %111), scope: __module.model.backbone/__module.model.backbone.bottom_up/__module.model.backbone.bottom_up.res3/__module.model.backbone.bottom_up.res3.2/__module.model.backbone.bottom_up.res3.2.conv2
  %420 : int[] = prim::ListConstruct(%113, %113), scope: __module.model.backbone/__module.model.backbone.bottom_up/__module.model.backbone.bottom_up.res3/__module.model.backbone.bottom_up.res3.2/__module.model.backbone.bottom_up.res3.2.conv2
  %input.41 : Float(1, 128, 136, 100, strides=[1740800, 13600, 100, 1], requires_grad=0, device=cuda:0) = aten::_convolution(%x.39, %weight.187, %108, %417, %418, %419, %112, %420, %111, %112, %112, %114, %114), scope: __module.model.backbone/__module.model.backbone.bottom_up/__module.model.backbone.bottom_up.res3/__module.model.backbone.bottom_up.res3.2/__module.model.backbone.bottom_up.res3.2.conv2 # /home/tbelldev/workspace/detectron2/detectron2/detectron2/layers/wrappers.py:113:0
  %running_var.145 : Tensor = prim::GetAttr[name="running_var"](%norm.39)
  %running_mean.145 : Tensor = prim::GetAttr[name="running_mean"](%norm.39)
  %bias.149 : Tensor = prim::GetAttr[name="bias"](%norm.39)
  %weight.189 : Tensor = prim::GetAttr[name="weight"](%norm.39)
  %out.43 : Float(1, 128, 136, 100, strides=[1740800, 13600, 100, 1], requires_grad=0, device=cuda:0) = aten::batch_norm(%input.41, %weight.189, %bias.149, %running_mean.145, %running_var.145, %112, %116, %115, %114), scope: __module.model.backbone/__module.model.backbone.bottom_up/__module.model.backbone.bottom_up.res3/__module.model.backbone.bottom_up.res3.2/__module.model.backbone.bottom_up.res3.2.conv2/__module.model.backbone.bottom_up.res3.2.conv2.norm # /home/tbelldev/anaconda3/envs/autolabeling/lib/python3.8/site-packages/torch/nn/functional.py:2421:0
  %x.41 : Float(1, 128, 136, 100, strides=[1740800, 13600, 100, 1], requires_grad=0, device=cuda:0) = aten::relu_(%out.43), scope: __module.model.backbone/__module.model.backbone.bottom_up/__module.model.backbone.bottom_up.res3/__module.model.backbone.bottom_up.res3.2 # /home/tbelldev/workspace/detectron2/detectron2/detectron2/modeling/backbone/resnet.py:199:0
  %norm.41 : __torch__.detectron2.layers.batch_norm.___torch_mangle_50.FrozenBatchNorm2d = prim::GetAttr[name="norm"](%conv3.11)
  %weight.191 : Tensor = prim::GetAttr[name="weight"](%conv3.11)
  %430 : int[] = prim::ListConstruct(%111, %111), scope: __module.model.backbone/__module.model.backbone.bottom_up/__module.model.backbone.bottom_up.res3/__module.model.backbone.bottom_up.res3.2/__module.model.backbone.bottom_up.res3.2.conv3
  %431 : int[] = prim::ListConstruct(%113, %113), scope: __module.model.backbone/__module.model.backbone.bottom_up/__module.model.backbone.bottom_up.res3/__module.model.backbone.bottom_up.res3.2/__module.model.backbone.bottom_up.res3.2.conv3
  %432 : int[] = prim::ListConstruct(%111, %111), scope: __module.model.backbone/__module.model.backbone.bottom_up/__module.model.backbone.bottom_up.res3/__module.model.backbone.bottom_up.res3.2/__module.model.backbone.bottom_up.res3.2.conv3
  %433 : int[] = prim::ListConstruct(%113, %113), scope: __module.model.backbone/__module.model.backbone.bottom_up/__module.model.backbone.bottom_up.res3/__module.model.backbone.bottom_up.res3.2/__module.model.backbone.bottom_up.res3.2.conv3
  %input.43 : Float(1, 512, 136, 100, strides=[6963200, 13600, 100, 1], requires_grad=0, device=cuda:0) = aten::_convolution(%x.41, %weight.191, %108, %430, %431, %432, %112, %433, %111, %112, %112, %114, %114), scope: __module.model.backbone/__module.model.backbone.bottom_up/__module.model.backbone.bottom_up.res3/__module.model.backbone.bottom_up.res3.2/__module.model.backbone.bottom_up.res3.2.conv3 # /home/tbelldev/workspace/detectron2/detectron2/detectron2/layers/wrappers.py:113:0
  %running_var.147 : Tensor = prim::GetAttr[name="running_var"](%norm.41)
  %running_mean.147 : Tensor = prim::GetAttr[name="running_mean"](%norm.41)
  %bias.151 : Tensor = prim::GetAttr[name="bias"](%norm.41)
  %weight.193 : Tensor = prim::GetAttr[name="weight"](%norm.41)
  %out.45 : Float(1, 512, 136, 100, strides=[6963200, 13600, 100, 1], requires_grad=0, device=cuda:0) = aten::batch_norm(%input.43, %weight.193, %bias.151, %running_mean.147, %running_var.147, %112, %116, %115, %114), scope: __module.model.backbone/__module.model.backbone.bottom_up/__module.model.backbone.bottom_up.res3/__module.model.backbone.bottom_up.res3.2/__module.model.backbone.bottom_up.res3.2.conv3/__module.model.backbone.bottom_up.res3.2.conv3.norm # /home/tbelldev/anaconda3/envs/autolabeling/lib/python3.8/site-packages/torch/nn/functional.py:2421:0
  %out.47 : Float(1, 512, 136, 100, strides=[6963200, 13600, 100, 1], requires_grad=0, device=cuda:0) = aten::add_(%out.45, %x.37, %111), scope: __module.model.backbone/__module.model.backbone.bottom_up/__module.model.backbone.bottom_up.res3/__module.model.backbone.bottom_up.res3.2 # /home/tbelldev/workspace/detectron2/detectron2/detectron2/modeling/backbone/resnet.py:208:0
  %x.43 : Float(1, 512, 136, 100, strides=[6963200, 13600, 100, 1], requires_grad=0, device=cuda:0) = aten::relu_(%out.47), scope: __module.model.backbone/__module.model.backbone.bottom_up/__module.model.backbone.bottom_up.res3/__module.model.backbone.bottom_up.res3.2 # /home/tbelldev/workspace/detectron2/detectron2/detectron2/modeling/backbone/resnet.py:209:0
  %conv3.13 : __torch__.detectron2.layers.wrappers.___torch_mangle_58.Conv2d = prim::GetAttr[name="conv3"](%_3.1)
  %conv2.13 : __torch__.detectron2.layers.wrappers.___torch_mangle_56.Conv2d = prim::GetAttr[name="conv2"](%_3.1)
  %conv1.15 : __torch__.detectron2.layers.wrappers.___torch_mangle_54.Conv2d = prim::GetAttr[name="conv1"](%_3.1)
  %norm.43 : __torch__.detectron2.layers.batch_norm.___torch_mangle_53.FrozenBatchNorm2d = prim::GetAttr[name="norm"](%conv1.15)
  %weight.195 : Tensor = prim::GetAttr[name="weight"](%conv1.15)
  %447 : int[] = prim::ListConstruct(%111, %111), scope: __module.model.backbone/__module.model.backbone.bottom_up/__module.model.backbone.bottom_up.res3/__module.model.backbone.bottom_up.res3.3/__module.model.backbone.bottom_up.res3.3.conv1
  %448 : int[] = prim::ListConstruct(%113, %113), scope: __module.model.backbone/__module.model.backbone.bottom_up/__module.model.backbone.bottom_up.res3/__module.model.backbone.bottom_up.res3.3/__module.model.backbone.bottom_up.res3.3.conv1
  %449 : int[] = prim::ListConstruct(%111, %111), scope: __module.model.backbone/__module.model.backbone.bottom_up/__module.model.backbone.bottom_up.res3/__module.model.backbone.bottom_up.res3.3/__module.model.backbone.bottom_up.res3.3.conv1
  %450 : int[] = prim::ListConstruct(%113, %113), scope: __module.model.backbone/__module.model.backbone.bottom_up/__module.model.backbone.bottom_up.res3/__module.model.backbone.bottom_up.res3.3/__module.model.backbone.bottom_up.res3.3.conv1
  %input.45 : Float(1, 128, 136, 100, strides=[1740800, 13600, 100, 1], requires_grad=0, device=cuda:0) = aten::_convolution(%x.43, %weight.195, %108, %447, %448, %449, %112, %450, %111, %112, %112, %114, %114), scope: __module.model.backbone/__module.model.backbone.bottom_up/__module.model.backbone.bottom_up.res3/__module.model.backbone.bottom_up.res3.3/__module.model.backbone.bottom_up.res3.3.conv1 # /home/tbelldev/workspace/detectron2/detectron2/detectron2/layers/wrappers.py:113:0
  %running_var.149 : Tensor = prim::GetAttr[name="running_var"](%norm.43)
  %running_mean.149 : Tensor = prim::GetAttr[name="running_mean"](%norm.43)
  %bias.153 : Tensor = prim::GetAttr[name="bias"](%norm.43)
  %weight.197 : Tensor = prim::GetAttr[name="weight"](%norm.43)
  %out.49 : Float(1, 128, 136, 100, strides=[1740800, 13600, 100, 1], requires_grad=0, device=cuda:0) = aten::batch_norm(%input.45, %weight.197, %bias.153, %running_mean.149, %running_var.149, %112, %116, %115, %114), scope: __module.model.backbone/__module.model.backbone.bottom_up/__module.model.backbone.bottom_up.res3/__module.model.backbone.bottom_up.res3.3/__module.model.backbone.bottom_up.res3.3.conv1/__module.model.backbone.bottom_up.res3.3.conv1.norm # /home/tbelldev/anaconda3/envs/autolabeling/lib/python3.8/site-packages/torch/nn/functional.py:2421:0
  %x.45 : Float(1, 128, 136, 100, strides=[1740800, 13600, 100, 1], requires_grad=0, device=cuda:0) = aten::relu_(%out.49), scope: __module.model.backbone/__module.model.backbone.bottom_up/__module.model.backbone.bottom_up.res3/__module.model.backbone.bottom_up.res3.3 # /home/tbelldev/workspace/detectron2/detectron2/detectron2/modeling/backbone/resnet.py:196:0
  %norm.45 : __torch__.detectron2.layers.batch_norm.___torch_mangle_55.FrozenBatchNorm2d = prim::GetAttr[name="norm"](%conv2.13)
  %weight.199 : Tensor = prim::GetAttr[name="weight"](%conv2.13)
  %460 : int[] = prim::ListConstruct(%111, %111), scope: __module.model.backbone/__module.model.backbone.bottom_up/__module.model.backbone.bottom_up.res3/__module.model.backbone.bottom_up.res3.3/__module.model.backbone.bottom_up.res3.3.conv2
  %461 : int[] = prim::ListConstruct(%111, %111), scope: __module.model.backbone/__module.model.backbone.bottom_up/__module.model.backbone.bottom_up.res3/__module.model.backbone.bottom_up.res3.3/__module.model.backbone.bottom_up.res3.3.conv2
  %462 : int[] = prim::ListConstruct(%111, %111), scope: __module.model.backbone/__module.model.backbone.bottom_up/__module.model.backbone.bottom_up.res3/__module.model.backbone.bottom_up.res3.3/__module.model.backbone.bottom_up.res3.3.conv2
  %463 : int[] = prim::ListConstruct(%113, %113), scope: __module.model.backbone/__module.model.backbone.bottom_up/__module.model.backbone.bottom_up.res3/__module.model.backbone.bottom_up.res3.3/__module.model.backbone.bottom_up.res3.3.conv2
  %input.47 : Float(1, 128, 136, 100, strides=[1740800, 13600, 100, 1], requires_grad=0, device=cuda:0) = aten::_convolution(%x.45, %weight.199, %108, %460, %461, %462, %112, %463, %111, %112, %112, %114, %114), scope: __module.model.backbone/__module.model.backbone.bottom_up/__module.model.backbone.bottom_up.res3/__module.model.backbone.bottom_up.res3.3/__module.model.backbone.bottom_up.res3.3.conv2 # /home/tbelldev/workspace/detectron2/detectron2/detectron2/layers/wrappers.py:113:0
  %running_var.151 : Tensor = prim::GetAttr[name="running_var"](%norm.45)
  %running_mean.151 : Tensor = prim::GetAttr[name="running_mean"](%norm.45)
  %bias.155 : Tensor = prim::GetAttr[name="bias"](%norm.45)
  %weight.201 : Tensor = prim::GetAttr[name="weight"](%norm.45)
  %out.51 : Float(1, 128, 136, 100, strides=[1740800, 13600, 100, 1], requires_grad=0, device=cuda:0) = aten::batch_norm(%input.47, %weight.201, %bias.155, %running_mean.151, %running_var.151, %112, %116, %115, %114), scope: __module.model.backbone/__module.model.backbone.bottom_up/__module.model.backbone.bottom_up.res3/__module.model.backbone.bottom_up.res3.3/__module.model.backbone.bottom_up.res3.3.conv2/__module.model.backbone.bottom_up.res3.3.conv2.norm # /home/tbelldev/anaconda3/envs/autolabeling/lib/python3.8/site-packages/torch/nn/functional.py:2421:0
  %x.47 : Float(1, 128, 136, 100, strides=[1740800, 13600, 100, 1], requires_grad=0, device=cuda:0) = aten::relu_(%out.51), scope: __module.model.backbone/__module.model.backbone.bottom_up/__module.model.backbone.bottom_up.res3/__module.model.backbone.bottom_up.res3.3 # /home/tbelldev/workspace/detectron2/detectron2/detectron2/modeling/backbone/resnet.py:199:0
  %norm.47 : __torch__.detectron2.layers.batch_norm.___torch_mangle_57.FrozenBatchNorm2d = prim::GetAttr[name="norm"](%conv3.13)
  %weight.203 : Tensor = prim::GetAttr[name="weight"](%conv3.13)
  %473 : int[] = prim::ListConstruct(%111, %111), scope: __module.model.backbone/__module.model.backbone.bottom_up/__module.model.backbone.bottom_up.res3/__module.model.backbone.bottom_up.res3.3/__module.model.backbone.bottom_up.res3.3.conv3
  %474 : int[] = prim::ListConstruct(%113, %113), scope: __module.model.backbone/__module.model.backbone.bottom_up/__module.model.backbone.bottom_up.res3/__module.model.backbone.bottom_up.res3.3/__module.model.backbone.bottom_up.res3.3.conv3
  %475 : int[] = prim::ListConstruct(%111, %111), scope: __module.model.backbone/__module.model.backbone.bottom_up/__module.model.backbone.bottom_up.res3/__module.model.backbone.bottom_up.res3.3/__module.model.backbone.bottom_up.res3.3.conv3
  %476 : int[] = prim::ListConstruct(%113, %113), scope: __module.model.backbone/__module.model.backbone.bottom_up/__module.model.backbone.bottom_up.res3/__module.model.backbone.bottom_up.res3.3/__module.model.backbone.bottom_up.res3.3.conv3
  %input.49 : Float(1, 512, 136, 100, strides=[6963200, 13600, 100, 1], requires_grad=0, device=cuda:0) = aten::_convolution(%x.47, %weight.203, %108, %473, %474, %475, %112, %476, %111, %112, %112, %114, %114), scope: __module.model.backbone/__module.model.backbone.bottom_up/__module.model.backbone.bottom_up.res3/__module.model.backbone.bottom_up.res3.3/__module.model.backbone.bottom_up.res3.3.conv3 # /home/tbelldev/workspace/detectron2/detectron2/detectron2/layers/wrappers.py:113:0
  %running_var.153 : Tensor = prim::GetAttr[name="running_var"](%norm.47)
  %running_mean.153 : Tensor = prim::GetAttr[name="running_mean"](%norm.47)
  %bias.157 : Tensor = prim::GetAttr[name="bias"](%norm.47)
  %weight.205 : Tensor = prim::GetAttr[name="weight"](%norm.47)
  %out.53 : Float(1, 512, 136, 100, strides=[6963200, 13600, 100, 1], requires_grad=0, device=cuda:0) = aten::batch_norm(%input.49, %weight.205, %bias.157, %running_mean.153, %running_var.153, %112, %116, %115, %114), scope: __module.model.backbone/__module.model.backbone.bottom_up/__module.model.backbone.bottom_up.res3/__module.model.backbone.bottom_up.res3.3/__module.model.backbone.bottom_up.res3.3.conv3/__module.model.backbone.bottom_up.res3.3.conv3.norm # /home/tbelldev/anaconda3/envs/autolabeling/lib/python3.8/site-packages/torch/nn/functional.py:2421:0
  %out.55 : Float(1, 512, 136, 100, strides=[6963200, 13600, 100, 1], requires_grad=0, device=cuda:0) = aten::add_(%out.53, %x.43, %111), scope: __module.model.backbone/__module.model.backbone.bottom_up/__module.model.backbone.bottom_up.res3/__module.model.backbone.bottom_up.res3.3 # /home/tbelldev/workspace/detectron2/detectron2/detectron2/modeling/backbone/resnet.py:208:0
  %x.49 : Float(1, 512, 136, 100, strides=[6963200, 13600, 100, 1], requires_grad=0, device=cuda:0) = aten::relu_(%out.55), scope: __module.model.backbone/__module.model.backbone.bottom_up/__module.model.backbone.bottom_up.res3/__module.model.backbone.bottom_up.res3.3 # /home/tbelldev/workspace/detectron2/detectron2/detectron2/modeling/backbone/resnet.py:209:0
  %_5 : __torch__.detectron2.modeling.backbone.resnet.___torch_mangle_104.BottleneckBlock = prim::GetAttr[name="5"](%res4)
  %_4.1 : __torch__.detectron2.modeling.backbone.resnet.___torch_mangle_97.BottleneckBlock = prim::GetAttr[name="4"](%res4)
  %_3.3 : __torch__.detectron2.modeling.backbone.resnet.___torch_mangle_90.BottleneckBlock = prim::GetAttr[name="3"](%res4)
  %_2.5 : __torch__.detectron2.modeling.backbone.resnet.___torch_mangle_83.BottleneckBlock = prim::GetAttr[name="2"](%res4)
  %_1.5 : __torch__.detectron2.modeling.backbone.resnet.___torch_mangle_76.BottleneckBlock = prim::GetAttr[name="1"](%res4)
  %_0.5 : __torch__.detectron2.modeling.backbone.resnet.___torch_mangle_69.BottleneckBlock = prim::GetAttr[name="0"](%res4)
  %shortcut.13 : __torch__.detectron2.layers.wrappers.___torch_mangle_62.Conv2d = prim::GetAttr[name="shortcut"](%_0.5)
  %conv3.15 : __torch__.detectron2.layers.wrappers.___torch_mangle_68.Conv2d = prim::GetAttr[name="conv3"](%_0.5)
  %conv2.15 : __torch__.detectron2.layers.wrappers.___torch_mangle_66.Conv2d = prim::GetAttr[name="conv2"](%_0.5)
  %conv1.17 : __torch__.detectron2.layers.wrappers.___torch_mangle_64.Conv2d = prim::GetAttr[name="conv1"](%_0.5)
  %norm.49 : __torch__.detectron2.layers.batch_norm.___torch_mangle_63.FrozenBatchNorm2d = prim::GetAttr[name="norm"](%conv1.17)
  %weight.207 : Tensor = prim::GetAttr[name="weight"](%conv1.17)
  %497 : int[] = prim::ListConstruct(%109, %109), scope: __module.model.backbone/__module.model.backbone.bottom_up/__module.model.backbone.bottom_up.res4/__module.model.backbone.bottom_up.res4.0/__module.model.backbone.bottom_up.res4.0.conv1
  %498 : int[] = prim::ListConstruct(%113, %113), scope: __module.model.backbone/__module.model.backbone.bottom_up/__module.model.backbone.bottom_up.res4/__module.model.backbone.bottom_up.res4.0/__module.model.backbone.bottom_up.res4.0.conv1
  %499 : int[] = prim::ListConstruct(%111, %111), scope: __module.model.backbone/__module.model.backbone.bottom_up/__module.model.backbone.bottom_up.res4/__module.model.backbone.bottom_up.res4.0/__module.model.backbone.bottom_up.res4.0.conv1
  %500 : int[] = prim::ListConstruct(%113, %113), scope: __module.model.backbone/__module.model.backbone.bottom_up/__module.model.backbone.bottom_up.res4/__module.model.backbone.bottom_up.res4.0/__module.model.backbone.bottom_up.res4.0.conv1
  %input.51 : Float(1, 256, 68, 50, strides=[870400, 3400, 50, 1], requires_grad=0, device=cuda:0) = aten::_convolution(%x.49, %weight.207, %108, %497, %498, %499, %112, %500, %111, %112, %112, %114, %114), scope: __module.model.backbone/__module.model.backbone.bottom_up/__module.model.backbone.bottom_up.res4/__module.model.backbone.bottom_up.res4.0/__module.model.backbone.bottom_up.res4.0.conv1 # /home/tbelldev/workspace/detectron2/detectron2/detectron2/layers/wrappers.py:113:0
  %running_var.155 : Tensor = prim::GetAttr[name="running_var"](%norm.49)
  %running_mean.155 : Tensor = prim::GetAttr[name="running_mean"](%norm.49)
  %bias.159 : Tensor = prim::GetAttr[name="bias"](%norm.49)
  %weight.209 : Tensor = prim::GetAttr[name="weight"](%norm.49)
  %out.57 : Float(1, 256, 68, 50, strides=[870400, 3400, 50, 1], requires_grad=0, device=cuda:0) = aten::batch_norm(%input.51, %weight.209, %bias.159, %running_mean.155, %running_var.155, %112, %116, %115, %114), scope: __module.model.backbone/__module.model.backbone.bottom_up/__module.model.backbone.bottom_up.res4/__module.model.backbone.bottom_up.res4.0/__module.model.backbone.bottom_up.res4.0.conv1/__module.model.backbone.bottom_up.res4.0.conv1.norm # /home/tbelldev/anaconda3/envs/autolabeling/lib/python3.8/site-packages/torch/nn/functional.py:2421:0
  %x.51 : Float(1, 256, 68, 50, strides=[870400, 3400, 50, 1], requires_grad=0, device=cuda:0) = aten::relu_(%out.57), scope: __module.model.backbone/__module.model.backbone.bottom_up/__module.model.backbone.bottom_up.res4/__module.model.backbone.bottom_up.res4.0 # /home/tbelldev/workspace/detectron2/detectron2/detectron2/modeling/backbone/resnet.py:196:0
  %norm.51 : __torch__.detectron2.layers.batch_norm.___torch_mangle_65.FrozenBatchNorm2d = prim::GetAttr[name="norm"](%conv2.15)
  %weight.211 : Tensor = prim::GetAttr[name="weight"](%conv2.15)
  %510 : int[] = prim::ListConstruct(%111, %111), scope: __module.model.backbone/__module.model.backbone.bottom_up/__module.model.backbone.bottom_up.res4/__module.model.backbone.bottom_up.res4.0/__module.model.backbone.bottom_up.res4.0.conv2
  %511 : int[] = prim::ListConstruct(%111, %111), scope: __module.model.backbone/__module.model.backbone.bottom_up/__module.model.backbone.bottom_up.res4/__module.model.backbone.bottom_up.res4.0/__module.model.backbone.bottom_up.res4.0.conv2
  %512 : int[] = prim::ListConstruct(%111, %111), scope: __module.model.backbone/__module.model.backbone.bottom_up/__module.model.backbone.bottom_up.res4/__module.model.backbone.bottom_up.res4.0/__module.model.backbone.bottom_up.res4.0.conv2
  %513 : int[] = prim::ListConstruct(%113, %113), scope: __module.model.backbone/__module.model.backbone.bottom_up/__module.model.backbone.bottom_up.res4/__module.model.backbone.bottom_up.res4.0/__module.model.backbone.bottom_up.res4.0.conv2
  %input.53 : Float(1, 256, 68, 50, strides=[870400, 3400, 50, 1], requires_grad=0, device=cuda:0) = aten::_convolution(%x.51, %weight.211, %108, %510, %511, %512, %112, %513, %111, %112, %112, %114, %114), scope: __module.model.backbone/__module.model.backbone.bottom_up/__module.model.backbone.bottom_up.res4/__module.model.backbone.bottom_up.res4.0/__module.model.backbone.bottom_up.res4.0.conv2 # /home/tbelldev/workspace/detectron2/detectron2/detectron2/layers/wrappers.py:113:0
  %running_var.157 : Tensor = prim::GetAttr[name="running_var"](%norm.51)
  %running_mean.157 : Tensor = prim::GetAttr[name="running_mean"](%norm.51)
  %bias.161 : Tensor = prim::GetAttr[name="bias"](%norm.51)
  %weight.213 : Tensor = prim::GetAttr[name="weight"](%norm.51)
  %out.59 : Float(1, 256, 68, 50, strides=[870400, 3400, 50, 1], requires_grad=0, device=cuda:0) = aten::batch_norm(%input.53, %weight.213, %bias.161, %running_mean.157, %running_var.157, %112, %116, %115, %114), scope: __module.model.backbone/__module.model.backbone.bottom_up/__module.model.backbone.bottom_up.res4/__module.model.backbone.bottom_up.res4.0/__module.model.backbone.bottom_up.res4.0.conv2/__module.model.backbone.bottom_up.res4.0.conv2.norm # /home/tbelldev/anaconda3/envs/autolabeling/lib/python3.8/site-packages/torch/nn/functional.py:2421:0
  %x.53 : Float(1, 256, 68, 50, strides=[870400, 3400, 50, 1], requires_grad=0, device=cuda:0) = aten::relu_(%out.59), scope: __module.model.backbone/__module.model.backbone.bottom_up/__module.model.backbone.bottom_up.res4/__module.model.backbone.bottom_up.res4.0 # /home/tbelldev/workspace/detectron2/detectron2/detectron2/modeling/backbone/resnet.py:199:0
  %norm.53 : __torch__.detectron2.layers.batch_norm.___torch_mangle_67.FrozenBatchNorm2d = prim::GetAttr[name="norm"](%conv3.15)
  %weight.215 : Tensor = prim::GetAttr[name="weight"](%conv3.15)
  %523 : int[] = prim::ListConstruct(%111, %111), scope: __module.model.backbone/__module.model.backbone.bottom_up/__module.model.backbone.bottom_up.res4/__module.model.backbone.bottom_up.res4.0/__module.model.backbone.bottom_up.res4.0.conv3
  %524 : int[] = prim::ListConstruct(%113, %113), scope: __module.model.backbone/__module.model.backbone.bottom_up/__module.model.backbone.bottom_up.res4/__module.model.backbone.bottom_up.res4.0/__module.model.backbone.bottom_up.res4.0.conv3
  %525 : int[] = prim::ListConstruct(%111, %111), scope: __module.model.backbone/__module.model.backbone.bottom_up/__module.model.backbone.bottom_up.res4/__module.model.backbone.bottom_up.res4.0/__module.model.backbone.bottom_up.res4.0.conv3
  %526 : int[] = prim::ListConstruct(%113, %113), scope: __module.model.backbone/__module.model.backbone.bottom_up/__module.model.backbone.bottom_up.res4/__module.model.backbone.bottom_up.res4.0/__module.model.backbone.bottom_up.res4.0.conv3
  %input.55 : Float(1, 1024, 68, 50, strides=[3481600, 3400, 50, 1], requires_grad=0, device=cuda:0) = aten::_convolution(%x.53, %weight.215, %108, %523, %524, %525, %112, %526, %111, %112, %112, %114, %114), scope: __module.model.backbone/__module.model.backbone.bottom_up/__module.model.backbone.bottom_up.res4/__module.model.backbone.bottom_up.res4.0/__module.model.backbone.bottom_up.res4.0.conv3 # /home/tbelldev/workspace/detectron2/detectron2/detectron2/layers/wrappers.py:113:0
  %running_var.159 : Tensor = prim::GetAttr[name="running_var"](%norm.53)
  %running_mean.159 : Tensor = prim::GetAttr[name="running_mean"](%norm.53)
  %bias.163 : Tensor = prim::GetAttr[name="bias"](%norm.53)
  %weight.217 : Tensor = prim::GetAttr[name="weight"](%norm.53)
  %out.61 : Float(1, 1024, 68, 50, strides=[3481600, 3400, 50, 1], requires_grad=0, device=cuda:0) = aten::batch_norm(%input.55, %weight.217, %bias.163, %running_mean.159, %running_var.159, %112, %116, %115, %114), scope: __module.model.backbone/__module.model.backbone.bottom_up/__module.model.backbone.bottom_up.res4/__module.model.backbone.bottom_up.res4.0/__module.model.backbone.bottom_up.res4.0.conv3/__module.model.backbone.bottom_up.res4.0.conv3.norm # /home/tbelldev/anaconda3/envs/autolabeling/lib/python3.8/site-packages/torch/nn/functional.py:2421:0
  %norm.55 : __torch__.detectron2.layers.batch_norm.___torch_mangle_61.FrozenBatchNorm2d = prim::GetAttr[name="norm"](%shortcut.13)
  %weight.219 : Tensor = prim::GetAttr[name="weight"](%shortcut.13)
  %535 : int[] = prim::ListConstruct(%109, %109), scope: __module.model.backbone/__module.model.backbone.bottom_up/__module.model.backbone.bottom_up.res4/__module.model.backbone.bottom_up.res4.0/__module.model.backbone.bottom_up.res4.0.shortcut
  %536 : int[] = prim::ListConstruct(%113, %113), scope: __module.model.backbone/__module.model.backbone.bottom_up/__module.model.backbone.bottom_up.res4/__module.model.backbone.bottom_up.res4.0/__module.model.backbone.bottom_up.res4.0.shortcut
  %537 : int[] = prim::ListConstruct(%111, %111), scope: __module.model.backbone/__module.model.backbone.bottom_up/__module.model.backbone.bottom_up.res4/__module.model.backbone.bottom_up.res4.0/__module.model.backbone.bottom_up.res4.0.shortcut
  %538 : int[] = prim::ListConstruct(%113, %113), scope: __module.model.backbone/__module.model.backbone.bottom_up/__module.model.backbone.bottom_up.res4/__module.model.backbone.bottom_up.res4.0/__module.model.backbone.bottom_up.res4.0.shortcut
  %input.57 : Float(1, 1024, 68, 50, strides=[3481600, 3400, 50, 1], requires_grad=0, device=cuda:0) = aten::_convolution(%x.49, %weight.219, %108, %535, %536, %537, %112, %538, %111, %112, %112, %114, %114), scope: __module.model.backbone/__module.model.backbone.bottom_up/__module.model.backbone.bottom_up.res4/__module.model.backbone.bottom_up.res4.0/__module.model.backbone.bottom_up.res4.0.shortcut # /home/tbelldev/workspace/detectron2/detectron2/detectron2/layers/wrappers.py:113:0
  %running_var.161 : Tensor = prim::GetAttr[name="running_var"](%norm.55)
  %running_mean.161 : Tensor = prim::GetAttr[name="running_mean"](%norm.55)
  %bias.165 : Tensor = prim::GetAttr[name="bias"](%norm.55)
  %weight.221 : Tensor = prim::GetAttr[name="weight"](%norm.55)
  %shortcut.5 : Float(1, 1024, 68, 50, strides=[3481600, 3400, 50, 1], requires_grad=0, device=cuda:0) = aten::batch_norm(%input.57, %weight.221, %bias.165, %running_mean.161, %running_var.161, %112, %116, %115, %114), scope: __module.model.backbone/__module.model.backbone.bottom_up/__module.model.backbone.bottom_up.res4/__module.model.backbone.bottom_up.res4.0/__module.model.backbone.bottom_up.res4.0.shortcut/__module.model.backbone.bottom_up.res4.0.shortcut.norm # /home/tbelldev/anaconda3/envs/autolabeling/lib/python3.8/site-packages/torch/nn/functional.py:2421:0
  %out.63 : Float(1, 1024, 68, 50, strides=[3481600, 3400, 50, 1], requires_grad=0, device=cuda:0) = aten::add_(%out.61, %shortcut.5, %111), scope: __module.model.backbone/__module.model.backbone.bottom_up/__module.model.backbone.bottom_up.res4/__module.model.backbone.bottom_up.res4.0 # /home/tbelldev/workspace/detectron2/detectron2/detectron2/modeling/backbone/resnet.py:208:0
  %x.55 : Float(1, 1024, 68, 50, strides=[3481600, 3400, 50, 1], requires_grad=0, device=cuda:0) = aten::relu_(%out.63), scope: __module.model.backbone/__module.model.backbone.bottom_up/__module.model.backbone.bottom_up.res4/__module.model.backbone.bottom_up.res4.0 # /home/tbelldev/workspace/detectron2/detectron2/detectron2/modeling/backbone/resnet.py:209:0
  %conv3.17 : __torch__.detectron2.layers.wrappers.___torch_mangle_75.Conv2d = prim::GetAttr[name="conv3"](%_1.5)
  %conv2.17 : __torch__.detectron2.layers.wrappers.___torch_mangle_73.Conv2d = prim::GetAttr[name="conv2"](%_1.5)
  %conv1.19 : __torch__.detectron2.layers.wrappers.___torch_mangle_71.Conv2d = prim::GetAttr[name="conv1"](%_1.5)
  %norm.57 : __torch__.detectron2.layers.batch_norm.___torch_mangle_70.FrozenBatchNorm2d = prim::GetAttr[name="norm"](%conv1.19)
  %weight.223 : Tensor = prim::GetAttr[name="weight"](%conv1.19)
  %552 : int[] = prim::ListConstruct(%111, %111), scope: __module.model.backbone/__module.model.backbone.bottom_up/__module.model.backbone.bottom_up.res4/__module.model.backbone.bottom_up.res4.1/__module.model.backbone.bottom_up.res4.1.conv1
  %553 : int[] = prim::ListConstruct(%113, %113), scope: __module.model.backbone/__module.model.backbone.bottom_up/__module.model.backbone.bottom_up.res4/__module.model.backbone.bottom_up.res4.1/__module.model.backbone.bottom_up.res4.1.conv1
  %554 : int[] = prim::ListConstruct(%111, %111), scope: __module.model.backbone/__module.model.backbone.bottom_up/__module.model.backbone.bottom_up.res4/__module.model.backbone.bottom_up.res4.1/__module.model.backbone.bottom_up.res4.1.conv1
  %555 : int[] = prim::ListConstruct(%113, %113), scope: __module.model.backbone/__module.model.backbone.bottom_up/__module.model.backbone.bottom_up.res4/__module.model.backbone.bottom_up.res4.1/__module.model.backbone.bottom_up.res4.1.conv1
  %input.59 : Float(1, 256, 68, 50, strides=[870400, 3400, 50, 1], requires_grad=0, device=cuda:0) = aten::_convolution(%x.55, %weight.223, %108, %552, %553, %554, %112, %555, %111, %112, %112, %114, %114), scope: __module.model.backbone/__module.model.backbone.bottom_up/__module.model.backbone.bottom_up.res4/__module.model.backbone.bottom_up.res4.1/__module.model.backbone.bottom_up.res4.1.conv1 # /home/tbelldev/workspace/detectron2/detectron2/detectron2/layers/wrappers.py:113:0
  %running_var.163 : Tensor = prim::GetAttr[name="running_var"](%norm.57)
  %running_mean.163 : Tensor = prim::GetAttr[name="running_mean"](%norm.57)
  %bias.167 : Tensor = prim::GetAttr[name="bias"](%norm.57)
  %weight.225 : Tensor = prim::GetAttr[name="weight"](%norm.57)
  %out.65 : Float(1, 256, 68, 50, strides=[870400, 3400, 50, 1], requires_grad=0, device=cuda:0) = aten::batch_norm(%input.59, %weight.225, %bias.167, %running_mean.163, %running_var.163, %112, %116, %115, %114), scope: __module.model.backbone/__module.model.backbone.bottom_up/__module.model.backbone.bottom_up.res4/__module.model.backbone.bottom_up.res4.1/__module.model.backbone.bottom_up.res4.1.conv1/__module.model.backbone.bottom_up.res4.1.conv1.norm # /home/tbelldev/anaconda3/envs/autolabeling/lib/python3.8/site-packages/torch/nn/functional.py:2421:0
  %x.57 : Float(1, 256, 68, 50, strides=[870400, 3400, 50, 1], requires_grad=0, device=cuda:0) = aten::relu_(%out.65), scope: __module.model.backbone/__module.model.backbone.bottom_up/__module.model.backbone.bottom_up.res4/__module.model.backbone.bottom_up.res4.1 # /home/tbelldev/workspace/detectron2/detectron2/detectron2/modeling/backbone/resnet.py:196:0
  %norm.59 : __torch__.detectron2.layers.batch_norm.___torch_mangle_72.FrozenBatchNorm2d = prim::GetAttr[name="norm"](%conv2.17)
  %weight.227 : Tensor = prim::GetAttr[name="weight"](%conv2.17)
  %565 : int[] = prim::ListConstruct(%111, %111), scope: __module.model.backbone/__module.model.backbone.bottom_up/__module.model.backbone.bottom_up.res4/__module.model.backbone.bottom_up.res4.1/__module.model.backbone.bottom_up.res4.1.conv2
  %566 : int[] = prim::ListConstruct(%111, %111), scope: __module.model.backbone/__module.model.backbone.bottom_up/__module.model.backbone.bottom_up.res4/__module.model.backbone.bottom_up.res4.1/__module.model.backbone.bottom_up.res4.1.conv2
  %567 : int[] = prim::ListConstruct(%111, %111), scope: __module.model.backbone/__module.model.backbone.bottom_up/__module.model.backbone.bottom_up.res4/__module.model.backbone.bottom_up.res4.1/__module.model.backbone.bottom_up.res4.1.conv2
  %568 : int[] = prim::ListConstruct(%113, %113), scope: __module.model.backbone/__module.model.backbone.bottom_up/__module.model.backbone.bottom_up.res4/__module.model.backbone.bottom_up.res4.1/__module.model.backbone.bottom_up.res4.1.conv2
  %input.61 : Float(1, 256, 68, 50, strides=[870400, 3400, 50, 1], requires_grad=0, device=cuda:0) = aten::_convolution(%x.57, %weight.227, %108, %565, %566, %567, %112, %568, %111, %112, %112, %114, %114), scope: __module.model.backbone/__module.model.backbone.bottom_up/__module.model.backbone.bottom_up.res4/__module.model.backbone.bottom_up.res4.1/__module.model.backbone.bottom_up.res4.1.conv2 # /home/tbelldev/workspace/detectron2/detectron2/detectron2/layers/wrappers.py:113:0
  %running_var.165 : Tensor = prim::GetAttr[name="running_var"](%norm.59)
  %running_mean.165 : Tensor = prim::GetAttr[name="running_mean"](%norm.59)
  %bias.169 : Tensor = prim::GetAttr[name="bias"](%norm.59)
  %weight.229 : Tensor = prim::GetAttr[name="weight"](%norm.59)
  %out.67 : Float(1, 256, 68, 50, strides=[870400, 3400, 50, 1], requires_grad=0, device=cuda:0) = aten::batch_norm(%input.61, %weight.229, %bias.169, %running_mean.165, %running_var.165, %112, %116, %115, %114), scope: __module.model.backbone/__module.model.backbone.bottom_up/__module.model.backbone.bottom_up.res4/__module.model.backbone.bottom_up.res4.1/__module.model.backbone.bottom_up.res4.1.conv2/__module.model.backbone.bottom_up.res4.1.conv2.norm # /home/tbelldev/anaconda3/envs/autolabeling/lib/python3.8/site-packages/torch/nn/functional.py:2421:0
  %x.59 : Float(1, 256, 68, 50, strides=[870400, 3400, 50, 1], requires_grad=0, device=cuda:0) = aten::relu_(%out.67), scope: __module.model.backbone/__module.model.backbone.bottom_up/__module.model.backbone.bottom_up.res4/__module.model.backbone.bottom_up.res4.1 # /home/tbelldev/workspace/detectron2/detectron2/detectron2/modeling/backbone/resnet.py:199:0
  %norm.61 : __torch__.detectron2.layers.batch_norm.___torch_mangle_74.FrozenBatchNorm2d = prim::GetAttr[name="norm"](%conv3.17)
  %weight.231 : Tensor = prim::GetAttr[name="weight"](%conv3.17)
  %578 : int[] = prim::ListConstruct(%111, %111), scope: __module.model.backbone/__module.model.backbone.bottom_up/__module.model.backbone.bottom_up.res4/__module.model.backbone.bottom_up.res4.1/__module.model.backbone.bottom_up.res4.1.conv3
  %579 : int[] = prim::ListConstruct(%113, %113), scope: __module.model.backbone/__module.model.backbone.bottom_up/__module.model.backbone.bottom_up.res4/__module.model.backbone.bottom_up.res4.1/__module.model.backbone.bottom_up.res4.1.conv3
  %580 : int[] = prim::ListConstruct(%111, %111), scope: __module.model.backbone/__module.model.backbone.bottom_up/__module.model.backbone.bottom_up.res4/__module.model.backbone.bottom_up.res4.1/__module.model.backbone.bottom_up.res4.1.conv3
  %581 : int[] = prim::ListConstruct(%113, %113), scope: __module.model.backbone/__module.model.backbone.bottom_up/__module.model.backbone.bottom_up.res4/__module.model.backbone.bottom_up.res4.1/__module.model.backbone.bottom_up.res4.1.conv3
  %input.63 : Float(1, 1024, 68, 50, strides=[3481600, 3400, 50, 1], requires_grad=0, device=cuda:0) = aten::_convolution(%x.59, %weight.231, %108, %578, %579, %580, %112, %581, %111, %112, %112, %114, %114), scope: __module.model.backbone/__module.model.backbone.bottom_up/__module.model.backbone.bottom_up.res4/__module.model.backbone.bottom_up.res4.1/__module.model.backbone.bottom_up.res4.1.conv3 # /home/tbelldev/workspace/detectron2/detectron2/detectron2/layers/wrappers.py:113:0
  %running_var.167 : Tensor = prim::GetAttr[name="running_var"](%norm.61)
  %running_mean.167 : Tensor = prim::GetAttr[name="running_mean"](%norm.61)
  %bias.171 : Tensor = prim::GetAttr[name="bias"](%norm.61)
  %weight.233 : Tensor = prim::GetAttr[name="weight"](%norm.61)
  %out.69 : Float(1, 1024, 68, 50, strides=[3481600, 3400, 50, 1], requires_grad=0, device=cuda:0) = aten::batch_norm(%input.63, %weight.233, %bias.171, %running_mean.167, %running_var.167, %112, %116, %115, %114), scope: __module.model.backbone/__module.model.backbone.bottom_up/__module.model.backbone.bottom_up.res4/__module.model.backbone.bottom_up.res4.1/__module.model.backbone.bottom_up.res4.1.conv3/__module.model.backbone.bottom_up.res4.1.conv3.norm # /home/tbelldev/anaconda3/envs/autolabeling/lib/python3.8/site-packages/torch/nn/functional.py:2421:0
  %out.71 : Float(1, 1024, 68, 50, strides=[3481600, 3400, 50, 1], requires_grad=0, device=cuda:0) = aten::add_(%out.69, %x.55, %111), scope: __module.model.backbone/__module.model.backbone.bottom_up/__module.model.backbone.bottom_up.res4/__module.model.backbone.bottom_up.res4.1 # /home/tbelldev/workspace/detectron2/detectron2/detectron2/modeling/backbone/resnet.py:208:0
  %x.61 : Float(1, 1024, 68, 50, strides=[3481600, 3400, 50, 1], requires_grad=0, device=cuda:0) = aten::relu_(%out.71), scope: __module.model.backbone/__module.model.backbone.bottom_up/__module.model.backbone.bottom_up.res4/__module.model.backbone.bottom_up.res4.1 # /home/tbelldev/workspace/detectron2/detectron2/detectron2/modeling/backbone/resnet.py:209:0
  %conv3.19 : __torch__.detectron2.layers.wrappers.___torch_mangle_82.Conv2d = prim::GetAttr[name="conv3"](%_2.5)
  %conv2.19 : __torch__.detectron2.layers.wrappers.___torch_mangle_80.Conv2d = prim::GetAttr[name="conv2"](%_2.5)
  %conv1.21 : __torch__.detectron2.layers.wrappers.___torch_mangle_78.Conv2d = prim::GetAttr[name="conv1"](%_2.5)
  %norm.63 : __torch__.detectron2.layers.batch_norm.___torch_mangle_77.FrozenBatchNorm2d = prim::GetAttr[name="norm"](%conv1.21)
  %weight.235 : Tensor = prim::GetAttr[name="weight"](%conv1.21)
  %595 : int[] = prim::ListConstruct(%111, %111), scope: __module.model.backbone/__module.model.backbone.bottom_up/__module.model.backbone.bottom_up.res4/__module.model.backbone.bottom_up.res4.2/__module.model.backbone.bottom_up.res4.2.conv1
  %596 : int[] = prim::ListConstruct(%113, %113), scope: __module.model.backbone/__module.model.backbone.bottom_up/__module.model.backbone.bottom_up.res4/__module.model.backbone.bottom_up.res4.2/__module.model.backbone.bottom_up.res4.2.conv1
  %597 : int[] = prim::ListConstruct(%111, %111), scope: __module.model.backbone/__module.model.backbone.bottom_up/__module.model.backbone.bottom_up.res4/__module.model.backbone.bottom_up.res4.2/__module.model.backbone.bottom_up.res4.2.conv1
  %598 : int[] = prim::ListConstruct(%113, %113), scope: __module.model.backbone/__module.model.backbone.bottom_up/__module.model.backbone.bottom_up.res4/__module.model.backbone.bottom_up.res4.2/__module.model.backbone.bottom_up.res4.2.conv1
  %input.65 : Float(1, 256, 68, 50, strides=[870400, 3400, 50, 1], requires_grad=0, device=cuda:0) = aten::_convolution(%x.61, %weight.235, %108, %595, %596, %597, %112, %598, %111, %112, %112, %114, %114), scope: __module.model.backbone/__module.model.backbone.bottom_up/__module.model.backbone.bottom_up.res4/__module.model.backbone.bottom_up.res4.2/__module.model.backbone.bottom_up.res4.2.conv1 # /home/tbelldev/workspace/detectron2/detectron2/detectron2/layers/wrappers.py:113:0
  %running_var.169 : Tensor = prim::GetAttr[name="running_var"](%norm.63)
  %running_mean.169 : Tensor = prim::GetAttr[name="running_mean"](%norm.63)
  %bias.173 : Tensor = prim::GetAttr[name="bias"](%norm.63)
  %weight.237 : Tensor = prim::GetAttr[name="weight"](%norm.63)
  %out.73 : Float(1, 256, 68, 50, strides=[870400, 3400, 50, 1], requires_grad=0, device=cuda:0) = aten::batch_norm(%input.65, %weight.237, %bias.173, %running_mean.169, %running_var.169, %112, %116, %115, %114), scope: __module.model.backbone/__module.model.backbone.bottom_up/__module.model.backbone.bottom_up.res4/__module.model.backbone.bottom_up.res4.2/__module.model.backbone.bottom_up.res4.2.conv1/__module.model.backbone.bottom_up.res4.2.conv1.norm # /home/tbelldev/anaconda3/envs/autolabeling/lib/python3.8/site-packages/torch/nn/functional.py:2421:0
  %x.63 : Float(1, 256, 68, 50, strides=[870400, 3400, 50, 1], requires_grad=0, device=cuda:0) = aten::relu_(%out.73), scope: __module.model.backbone/__module.model.backbone.bottom_up/__module.model.backbone.bottom_up.res4/__module.model.backbone.bottom_up.res4.2 # /home/tbelldev/workspace/detectron2/detectron2/detectron2/modeling/backbone/resnet.py:196:0
  %norm.65 : __torch__.detectron2.layers.batch_norm.___torch_mangle_79.FrozenBatchNorm2d = prim::GetAttr[name="norm"](%conv2.19)
  %weight.239 : Tensor = prim::GetAttr[name="weight"](%conv2.19)
  %608 : int[] = prim::ListConstruct(%111, %111), scope: __module.model.backbone/__module.model.backbone.bottom_up/__module.model.backbone.bottom_up.res4/__module.model.backbone.bottom_up.res4.2/__module.model.backbone.bottom_up.res4.2.conv2
  %609 : int[] = prim::ListConstruct(%111, %111), scope: __module.model.backbone/__module.model.backbone.bottom_up/__module.model.backbone.bottom_up.res4/__module.model.backbone.bottom_up.res4.2/__module.model.backbone.bottom_up.res4.2.conv2
  %610 : int[] = prim::ListConstruct(%111, %111), scope: __module.model.backbone/__module.model.backbone.bottom_up/__module.model.backbone.bottom_up.res4/__module.model.backbone.bottom_up.res4.2/__module.model.backbone.bottom_up.res4.2.conv2
  %611 : int[] = prim::ListConstruct(%113, %113), scope: __module.model.backbone/__module.model.backbone.bottom_up/__module.model.backbone.bottom_up.res4/__module.model.backbone.bottom_up.res4.2/__module.model.backbone.bottom_up.res4.2.conv2
  %input.67 : Float(1, 256, 68, 50, strides=[870400, 3400, 50, 1], requires_grad=0, device=cuda:0) = aten::_convolution(%x.63, %weight.239, %108, %608, %609, %610, %112, %611, %111, %112, %112, %114, %114), scope: __module.model.backbone/__module.model.backbone.bottom_up/__module.model.backbone.bottom_up.res4/__module.model.backbone.bottom_up.res4.2/__module.model.backbone.bottom_up.res4.2.conv2 # /home/tbelldev/workspace/detectron2/detectron2/detectron2/layers/wrappers.py:113:0
  %running_var.171 : Tensor = prim::GetAttr[name="running_var"](%norm.65)
  %running_mean.171 : Tensor = prim::GetAttr[name="running_mean"](%norm.65)
  %bias.175 : Tensor = prim::GetAttr[name="bias"](%norm.65)
  %weight.241 : Tensor = prim::GetAttr[name="weight"](%norm.65)
  %out.75 : Float(1, 256, 68, 50, strides=[870400, 3400, 50, 1], requires_grad=0, device=cuda:0) = aten::batch_norm(%input.67, %weight.241, %bias.175, %running_mean.171, %running_var.171, %112, %116, %115, %114), scope: __module.model.backbone/__module.model.backbone.bottom_up/__module.model.backbone.bottom_up.res4/__module.model.backbone.bottom_up.res4.2/__module.model.backbone.bottom_up.res4.2.conv2/__module.model.backbone.bottom_up.res4.2.conv2.norm # /home/tbelldev/anaconda3/envs/autolabeling/lib/python3.8/site-packages/torch/nn/functional.py:2421:0
  %x.65 : Float(1, 256, 68, 50, strides=[870400, 3400, 50, 1], requires_grad=0, device=cuda:0) = aten::relu_(%out.75), scope: __module.model.backbone/__module.model.backbone.bottom_up/__module.model.backbone.bottom_up.res4/__module.model.backbone.bottom_up.res4.2 # /home/tbelldev/workspace/detectron2/detectron2/detectron2/modeling/backbone/resnet.py:199:0
  %norm.67 : __torch__.detectron2.layers.batch_norm.___torch_mangle_81.FrozenBatchNorm2d = prim::GetAttr[name="norm"](%conv3.19)
  %weight.243 : Tensor = prim::GetAttr[name="weight"](%conv3.19)
  %621 : int[] = prim::ListConstruct(%111, %111), scope: __module.model.backbone/__module.model.backbone.bottom_up/__module.model.backbone.bottom_up.res4/__module.model.backbone.bottom_up.res4.2/__module.model.backbone.bottom_up.res4.2.conv3
  %622 : int[] = prim::ListConstruct(%113, %113), scope: __module.model.backbone/__module.model.backbone.bottom_up/__module.model.backbone.bottom_up.res4/__module.model.backbone.bottom_up.res4.2/__module.model.backbone.bottom_up.res4.2.conv3
  %623 : int[] = prim::ListConstruct(%111, %111), scope: __module.model.backbone/__module.model.backbone.bottom_up/__module.model.backbone.bottom_up.res4/__module.model.backbone.bottom_up.res4.2/__module.model.backbone.bottom_up.res4.2.conv3
  %624 : int[] = prim::ListConstruct(%113, %113), scope: __module.model.backbone/__module.model.backbone.bottom_up/__module.model.backbone.bottom_up.res4/__module.model.backbone.bottom_up.res4.2/__module.model.backbone.bottom_up.res4.2.conv3
  %input.69 : Float(1, 1024, 68, 50, strides=[3481600, 3400, 50, 1], requires_grad=0, device=cuda:0) = aten::_convolution(%x.65, %weight.243, %108, %621, %622, %623, %112, %624, %111, %112, %112, %114, %114), scope: __module.model.backbone/__module.model.backbone.bottom_up/__module.model.backbone.bottom_up.res4/__module.model.backbone.bottom_up.res4.2/__module.model.backbone.bottom_up.res4.2.conv3 # /home/tbelldev/workspace/detectron2/detectron2/detectron2/layers/wrappers.py:113:0
  %running_var.173 : Tensor = prim::GetAttr[name="running_var"](%norm.67)
  %running_mean.173 : Tensor = prim::GetAttr[name="running_mean"](%norm.67)
  %bias.177 : Tensor = prim::GetAttr[name="bias"](%norm.67)
  %weight.245 : Tensor = prim::GetAttr[name="weight"](%norm.67)
  %out.77 : Float(1, 1024, 68, 50, strides=[3481600, 3400, 50, 1], requires_grad=0, device=cuda:0) = aten::batch_norm(%input.69, %weight.245, %bias.177, %running_mean.173, %running_var.173, %112, %116, %115, %114), scope: __module.model.backbone/__module.model.backbone.bottom_up/__module.model.backbone.bottom_up.res4/__module.model.backbone.bottom_up.res4.2/__module.model.backbone.bottom_up.res4.2.conv3/__module.model.backbone.bottom_up.res4.2.conv3.norm # /home/tbelldev/anaconda3/envs/autolabeling/lib/python3.8/site-packages/torch/nn/functional.py:2421:0
  %out.79 : Float(1, 1024, 68, 50, strides=[3481600, 3400, 50, 1], requires_grad=0, device=cuda:0) = aten::add_(%out.77, %x.61, %111), scope: __module.model.backbone/__module.model.backbone.bottom_up/__module.model.backbone.bottom_up.res4/__module.model.backbone.bottom_up.res4.2 # /home/tbelldev/workspace/detectron2/detectron2/detectron2/modeling/backbone/resnet.py:208:0
  %x.67 : Float(1, 1024, 68, 50, strides=[3481600, 3400, 50, 1], requires_grad=0, device=cuda:0) = aten::relu_(%out.79), scope: __module.model.backbone/__module.model.backbone.bottom_up/__module.model.backbone.bottom_up.res4/__module.model.backbone.bottom_up.res4.2 # /home/tbelldev/workspace/detectron2/detectron2/detectron2/modeling/backbone/resnet.py:209:0
  %conv3.21 : __torch__.detectron2.layers.wrappers.___torch_mangle_89.Conv2d = prim::GetAttr[name="conv3"](%_3.3)
  %conv2.21 : __torch__.detectron2.layers.wrappers.___torch_mangle_87.Conv2d = prim::GetAttr[name="conv2"](%_3.3)
  %conv1.23 : __torch__.detectron2.layers.wrappers.___torch_mangle_85.Conv2d = prim::GetAttr[name="conv1"](%_3.3)
  %norm.69 : __torch__.detectron2.layers.batch_norm.___torch_mangle_84.FrozenBatchNorm2d = prim::GetAttr[name="norm"](%conv1.23)
  %weight.247 : Tensor = prim::GetAttr[name="weight"](%conv1.23)
  %638 : int[] = prim::ListConstruct(%111, %111), scope: __module.model.backbone/__module.model.backbone.bottom_up/__module.model.backbone.bottom_up.res4/__module.model.backbone.bottom_up.res4.3/__module.model.backbone.bottom_up.res4.3.conv1
  %639 : int[] = prim::ListConstruct(%113, %113), scope: __module.model.backbone/__module.model.backbone.bottom_up/__module.model.backbone.bottom_up.res4/__module.model.backbone.bottom_up.res4.3/__module.model.backbone.bottom_up.res4.3.conv1
  %640 : int[] = prim::ListConstruct(%111, %111), scope: __module.model.backbone/__module.model.backbone.bottom_up/__module.model.backbone.bottom_up.res4/__module.model.backbone.bottom_up.res4.3/__module.model.backbone.bottom_up.res4.3.conv1
  %641 : int[] = prim::ListConstruct(%113, %113), scope: __module.model.backbone/__module.model.backbone.bottom_up/__module.model.backbone.bottom_up.res4/__module.model.backbone.bottom_up.res4.3/__module.model.backbone.bottom_up.res4.3.conv1
  %input.71 : Float(1, 256, 68, 50, strides=[870400, 3400, 50, 1], requires_grad=0, device=cuda:0) = aten::_convolution(%x.67, %weight.247, %108, %638, %639, %640, %112, %641, %111, %112, %112, %114, %114), scope: __module.model.backbone/__module.model.backbone.bottom_up/__module.model.backbone.bottom_up.res4/__module.model.backbone.bottom_up.res4.3/__module.model.backbone.bottom_up.res4.3.conv1 # /home/tbelldev/workspace/detectron2/detectron2/detectron2/layers/wrappers.py:113:0
  %running_var.175 : Tensor = prim::GetAttr[name="running_var"](%norm.69)
  %running_mean.175 : Tensor = prim::GetAttr[name="running_mean"](%norm.69)
  %bias.179 : Tensor = prim::GetAttr[name="bias"](%norm.69)
  %weight.249 : Tensor = prim::GetAttr[name="weight"](%norm.69)
  %out.81 : Float(1, 256, 68, 50, strides=[870400, 3400, 50, 1], requires_grad=0, device=cuda:0) = aten::batch_norm(%input.71, %weight.249, %bias.179, %running_mean.175, %running_var.175, %112, %116, %115, %114), scope: __module.model.backbone/__module.model.backbone.bottom_up/__module.model.backbone.bottom_up.res4/__module.model.backbone.bottom_up.res4.3/__module.model.backbone.bottom_up.res4.3.conv1/__module.model.backbone.bottom_up.res4.3.conv1.norm # /home/tbelldev/anaconda3/envs/autolabeling/lib/python3.8/site-packages/torch/nn/functional.py:2421:0
  %x.69 : Float(1, 256, 68, 50, strides=[870400, 3400, 50, 1], requires_grad=0, device=cuda:0) = aten::relu_(%out.81), scope: __module.model.backbone/__module.model.backbone.bottom_up/__module.model.backbone.bottom_up.res4/__module.model.backbone.bottom_up.res4.3 # /home/tbelldev/workspace/detectron2/detectron2/detectron2/modeling/backbone/resnet.py:196:0
  %norm.71 : __torch__.detectron2.layers.batch_norm.___torch_mangle_86.FrozenBatchNorm2d = prim::GetAttr[name="norm"](%conv2.21)
  %weight.251 : Tensor = prim::GetAttr[name="weight"](%conv2.21)
  %651 : int[] = prim::ListConstruct(%111, %111), scope: __module.model.backbone/__module.model.backbone.bottom_up/__module.model.backbone.bottom_up.res4/__module.model.backbone.bottom_up.res4.3/__module.model.backbone.bottom_up.res4.3.conv2
  %652 : int[] = prim::ListConstruct(%111, %111), scope: __module.model.backbone/__module.model.backbone.bottom_up/__module.model.backbone.bottom_up.res4/__module.model.backbone.bottom_up.res4.3/__module.model.backbone.bottom_up.res4.3.conv2
  %653 : int[] = prim::ListConstruct(%111, %111), scope: __module.model.backbone/__module.model.backbone.bottom_up/__module.model.backbone.bottom_up.res4/__module.model.backbone.bottom_up.res4.3/__module.model.backbone.bottom_up.res4.3.conv2
  %654 : int[] = prim::ListConstruct(%113, %113), scope: __module.model.backbone/__module.model.backbone.bottom_up/__module.model.backbone.bottom_up.res4/__module.model.backbone.bottom_up.res4.3/__module.model.backbone.bottom_up.res4.3.conv2
  %input.73 : Float(1, 256, 68, 50, strides=[870400, 3400, 50, 1], requires_grad=0, device=cuda:0) = aten::_convolution(%x.69, %weight.251, %108, %651, %652, %653, %112, %654, %111, %112, %112, %114, %114), scope: __module.model.backbone/__module.model.backbone.bottom_up/__module.model.backbone.bottom_up.res4/__module.model.backbone.bottom_up.res4.3/__module.model.backbone.bottom_up.res4.3.conv2 # /home/tbelldev/workspace/detectron2/detectron2/detectron2/layers/wrappers.py:113:0
  %running_var.177 : Tensor = prim::GetAttr[name="running_var"](%norm.71)
  %running_mean.177 : Tensor = prim::GetAttr[name="running_mean"](%norm.71)
  %bias.181 : Tensor = prim::GetAttr[name="bias"](%norm.71)
  %weight.253 : Tensor = prim::GetAttr[name="weight"](%norm.71)
  %out.83 : Float(1, 256, 68, 50, strides=[870400, 3400, 50, 1], requires_grad=0, device=cuda:0) = aten::batch_norm(%input.73, %weight.253, %bias.181, %running_mean.177, %running_var.177, %112, %116, %115, %114), scope: __module.model.backbone/__module.model.backbone.bottom_up/__module.model.backbone.bottom_up.res4/__module.model.backbone.bottom_up.res4.3/__module.model.backbone.bottom_up.res4.3.conv2/__module.model.backbone.bottom_up.res4.3.conv2.norm # /home/tbelldev/anaconda3/envs/autolabeling/lib/python3.8/site-packages/torch/nn/functional.py:2421:0
  %x.71 : Float(1, 256, 68, 50, strides=[870400, 3400, 50, 1], requires_grad=0, device=cuda:0) = aten::relu_(%out.83), scope: __module.model.backbone/__module.model.backbone.bottom_up/__module.model.backbone.bottom_up.res4/__module.model.backbone.bottom_up.res4.3 # /home/tbelldev/workspace/detectron2/detectron2/detectron2/modeling/backbone/resnet.py:199:0
  %norm.73 : __torch__.detectron2.layers.batch_norm.___torch_mangle_88.FrozenBatchNorm2d = prim::GetAttr[name="norm"](%conv3.21)
  %weight.255 : Tensor = prim::GetAttr[name="weight"](%conv3.21)
  %664 : int[] = prim::ListConstruct(%111, %111), scope: __module.model.backbone/__module.model.backbone.bottom_up/__module.model.backbone.bottom_up.res4/__module.model.backbone.bottom_up.res4.3/__module.model.backbone.bottom_up.res4.3.conv3
  %665 : int[] = prim::ListConstruct(%113, %113), scope: __module.model.backbone/__module.model.backbone.bottom_up/__module.model.backbone.bottom_up.res4/__module.model.backbone.bottom_up.res4.3/__module.model.backbone.bottom_up.res4.3.conv3
  %666 : int[] = prim::ListConstruct(%111, %111), scope: __module.model.backbone/__module.model.backbone.bottom_up/__module.model.backbone.bottom_up.res4/__module.model.backbone.bottom_up.res4.3/__module.model.backbone.bottom_up.res4.3.conv3
  %667 : int[] = prim::ListConstruct(%113, %113), scope: __module.model.backbone/__module.model.backbone.bottom_up/__module.model.backbone.bottom_up.res4/__module.model.backbone.bottom_up.res4.3/__module.model.backbone.bottom_up.res4.3.conv3
  %input.75 : Float(1, 1024, 68, 50, strides=[3481600, 3400, 50, 1], requires_grad=0, device=cuda:0) = aten::_convolution(%x.71, %weight.255, %108, %664, %665, %666, %112, %667, %111, %112, %112, %114, %114), scope: __module.model.backbone/__module.model.backbone.bottom_up/__module.model.backbone.bottom_up.res4/__module.model.backbone.bottom_up.res4.3/__module.model.backbone.bottom_up.res4.3.conv3 # /home/tbelldev/workspace/detectron2/detectron2/detectron2/layers/wrappers.py:113:0
  %running_var.179 : Tensor = prim::GetAttr[name="running_var"](%norm.73)
  %running_mean.179 : Tensor = prim::GetAttr[name="running_mean"](%norm.73)
  %bias.183 : Tensor = prim::GetAttr[name="bias"](%norm.73)
  %weight.257 : Tensor = prim::GetAttr[name="weight"](%norm.73)
  %out.85 : Float(1, 1024, 68, 50, strides=[3481600, 3400, 50, 1], requires_grad=0, device=cuda:0) = aten::batch_norm(%input.75, %weight.257, %bias.183, %running_mean.179, %running_var.179, %112, %116, %115, %114), scope: __module.model.backbone/__module.model.backbone.bottom_up/__module.model.backbone.bottom_up.res4/__module.model.backbone.bottom_up.res4.3/__module.model.backbone.bottom_up.res4.3.conv3/__module.model.backbone.bottom_up.res4.3.conv3.norm # /home/tbelldev/anaconda3/envs/autolabeling/lib/python3.8/site-packages/torch/nn/functional.py:2421:0
  %out.87 : Float(1, 1024, 68, 50, strides=[3481600, 3400, 50, 1], requires_grad=0, device=cuda:0) = aten::add_(%out.85, %x.67, %111), scope: __module.model.backbone/__module.model.backbone.bottom_up/__module.model.backbone.bottom_up.res4/__module.model.backbone.bottom_up.res4.3 # /home/tbelldev/workspace/detectron2/detectron2/detectron2/modeling/backbone/resnet.py:208:0
  %x.73 : Float(1, 1024, 68, 50, strides=[3481600, 3400, 50, 1], requires_grad=0, device=cuda:0) = aten::relu_(%out.87), scope: __module.model.backbone/__module.model.backbone.bottom_up/__module.model.backbone.bottom_up.res4/__module.model.backbone.bottom_up.res4.3 # /home/tbelldev/workspace/detectron2/detectron2/detectron2/modeling/backbone/resnet.py:209:0
  %conv3.23 : __torch__.detectron2.layers.wrappers.___torch_mangle_96.Conv2d = prim::GetAttr[name="conv3"](%_4.1)
  %conv2.23 : __torch__.detectron2.layers.wrappers.___torch_mangle_94.Conv2d = prim::GetAttr[name="conv2"](%_4.1)
  %conv1.25 : __torch__.detectron2.layers.wrappers.___torch_mangle_92.Conv2d = prim::GetAttr[name="conv1"](%_4.1)
  %norm.75 : __torch__.detectron2.layers.batch_norm.___torch_mangle_91.FrozenBatchNorm2d = prim::GetAttr[name="norm"](%conv1.25)
  %weight.259 : Tensor = prim::GetAttr[name="weight"](%conv1.25)
  %681 : int[] = prim::ListConstruct(%111, %111), scope: __module.model.backbone/__module.model.backbone.bottom_up/__module.model.backbone.bottom_up.res4/__module.model.backbone.bottom_up.res4.4/__module.model.backbone.bottom_up.res4.4.conv1
  %682 : int[] = prim::ListConstruct(%113, %113), scope: __module.model.backbone/__module.model.backbone.bottom_up/__module.model.backbone.bottom_up.res4/__module.model.backbone.bottom_up.res4.4/__module.model.backbone.bottom_up.res4.4.conv1
  %683 : int[] = prim::ListConstruct(%111, %111), scope: __module.model.backbone/__module.model.backbone.bottom_up/__module.model.backbone.bottom_up.res4/__module.model.backbone.bottom_up.res4.4/__module.model.backbone.bottom_up.res4.4.conv1
  %684 : int[] = prim::ListConstruct(%113, %113), scope: __module.model.backbone/__module.model.backbone.bottom_up/__module.model.backbone.bottom_up.res4/__module.model.backbone.bottom_up.res4.4/__module.model.backbone.bottom_up.res4.4.conv1
  %input.77 : Float(1, 256, 68, 50, strides=[870400, 3400, 50, 1], requires_grad=0, device=cuda:0) = aten::_convolution(%x.73, %weight.259, %108, %681, %682, %683, %112, %684, %111, %112, %112, %114, %114), scope: __module.model.backbone/__module.model.backbone.bottom_up/__module.model.backbone.bottom_up.res4/__module.model.backbone.bottom_up.res4.4/__module.model.backbone.bottom_up.res4.4.conv1 # /home/tbelldev/workspace/detectron2/detectron2/detectron2/layers/wrappers.py:113:0
  %running_var.181 : Tensor = prim::GetAttr[name="running_var"](%norm.75)
  %running_mean.181 : Tensor = prim::GetAttr[name="running_mean"](%norm.75)
  %bias.185 : Tensor = prim::GetAttr[name="bias"](%norm.75)
  %weight.261 : Tensor = prim::GetAttr[name="weight"](%norm.75)
  %out.89 : Float(1, 256, 68, 50, strides=[870400, 3400, 50, 1], requires_grad=0, device=cuda:0) = aten::batch_norm(%input.77, %weight.261, %bias.185, %running_mean.181, %running_var.181, %112, %116, %115, %114), scope: __module.model.backbone/__module.model.backbone.bottom_up/__module.model.backbone.bottom_up.res4/__module.model.backbone.bottom_up.res4.4/__module.model.backbone.bottom_up.res4.4.conv1/__module.model.backbone.bottom_up.res4.4.conv1.norm # /home/tbelldev/anaconda3/envs/autolabeling/lib/python3.8/site-packages/torch/nn/functional.py:2421:0
  %x.75 : Float(1, 256, 68, 50, strides=[870400, 3400, 50, 1], requires_grad=0, device=cuda:0) = aten::relu_(%out.89), scope: __module.model.backbone/__module.model.backbone.bottom_up/__module.model.backbone.bottom_up.res4/__module.model.backbone.bottom_up.res4.4 # /home/tbelldev/workspace/detectron2/detectron2/detectron2/modeling/backbone/resnet.py:196:0
  %norm.77 : __torch__.detectron2.layers.batch_norm.___torch_mangle_93.FrozenBatchNorm2d = prim::GetAttr[name="norm"](%conv2.23)
  %weight.263 : Tensor = prim::GetAttr[name="weight"](%conv2.23)
  %694 : int[] = prim::ListConstruct(%111, %111), scope: __module.model.backbone/__module.model.backbone.bottom_up/__module.model.backbone.bottom_up.res4/__module.model.backbone.bottom_up.res4.4/__module.model.backbone.bottom_up.res4.4.conv2
  %695 : int[] = prim::ListConstruct(%111, %111), scope: __module.model.backbone/__module.model.backbone.bottom_up/__module.model.backbone.bottom_up.res4/__module.model.backbone.bottom_up.res4.4/__module.model.backbone.bottom_up.res4.4.conv2
  %696 : int[] = prim::ListConstruct(%111, %111), scope: __module.model.backbone/__module.model.backbone.bottom_up/__module.model.backbone.bottom_up.res4/__module.model.backbone.bottom_up.res4.4/__module.model.backbone.bottom_up.res4.4.conv2
  %697 : int[] = prim::ListConstruct(%113, %113), scope: __module.model.backbone/__module.model.backbone.bottom_up/__module.model.backbone.bottom_up.res4/__module.model.backbone.bottom_up.res4.4/__module.model.backbone.bottom_up.res4.4.conv2
  %input.79 : Float(1, 256, 68, 50, strides=[870400, 3400, 50, 1], requires_grad=0, device=cuda:0) = aten::_convolution(%x.75, %weight.263, %108, %694, %695, %696, %112, %697, %111, %112, %112, %114, %114), scope: __module.model.backbone/__module.model.backbone.bottom_up/__module.model.backbone.bottom_up.res4/__module.model.backbone.bottom_up.res4.4/__module.model.backbone.bottom_up.res4.4.conv2 # /home/tbelldev/workspace/detectron2/detectron2/detectron2/layers/wrappers.py:113:0
  %running_var.183 : Tensor = prim::GetAttr[name="running_var"](%norm.77)
  %running_mean.183 : Tensor = prim::GetAttr[name="running_mean"](%norm.77)
  %bias.187 : Tensor = prim::GetAttr[name="bias"](%norm.77)
  %weight.265 : Tensor = prim::GetAttr[name="weight"](%norm.77)
  %out.91 : Float(1, 256, 68, 50, strides=[870400, 3400, 50, 1], requires_grad=0, device=cuda:0) = aten::batch_norm(%input.79, %weight.265, %bias.187, %running_mean.183, %running_var.183, %112, %116, %115, %114), scope: __module.model.backbone/__module.model.backbone.bottom_up/__module.model.backbone.bottom_up.res4/__module.model.backbone.bottom_up.res4.4/__module.model.backbone.bottom_up.res4.4.conv2/__module.model.backbone.bottom_up.res4.4.conv2.norm # /home/tbelldev/anaconda3/envs/autolabeling/lib/python3.8/site-packages/torch/nn/functional.py:2421:0
  %x.77 : Float(1, 256, 68, 50, strides=[870400, 3400, 50, 1], requires_grad=0, device=cuda:0) = aten::relu_(%out.91), scope: __module.model.backbone/__module.model.backbone.bottom_up/__module.model.backbone.bottom_up.res4/__module.model.backbone.bottom_up.res4.4 # /home/tbelldev/workspace/detectron2/detectron2/detectron2/modeling/backbone/resnet.py:199:0
  %norm.79 : __torch__.detectron2.layers.batch_norm.___torch_mangle_95.FrozenBatchNorm2d = prim::GetAttr[name="norm"](%conv3.23)
  %weight.267 : Tensor = prim::GetAttr[name="weight"](%conv3.23)
  %707 : int[] = prim::ListConstruct(%111, %111), scope: __module.model.backbone/__module.model.backbone.bottom_up/__module.model.backbone.bottom_up.res4/__module.model.backbone.bottom_up.res4.4/__module.model.backbone.bottom_up.res4.4.conv3
  %708 : int[] = prim::ListConstruct(%113, %113), scope: __module.model.backbone/__module.model.backbone.bottom_up/__module.model.backbone.bottom_up.res4/__module.model.backbone.bottom_up.res4.4/__module.model.backbone.bottom_up.res4.4.conv3
  %709 : int[] = prim::ListConstruct(%111, %111), scope: __module.model.backbone/__module.model.backbone.bottom_up/__module.model.backbone.bottom_up.res4/__module.model.backbone.bottom_up.res4.4/__module.model.backbone.bottom_up.res4.4.conv3
  %710 : int[] = prim::ListConstruct(%113, %113), scope: __module.model.backbone/__module.model.backbone.bottom_up/__module.model.backbone.bottom_up.res4/__module.model.backbone.bottom_up.res4.4/__module.model.backbone.bottom_up.res4.4.conv3
  %input.81 : Float(1, 1024, 68, 50, strides=[3481600, 3400, 50, 1], requires_grad=0, device=cuda:0) = aten::_convolution(%x.77, %weight.267, %108, %707, %708, %709, %112, %710, %111, %112, %112, %114, %114), scope: __module.model.backbone/__module.model.backbone.bottom_up/__module.model.backbone.bottom_up.res4/__module.model.backbone.bottom_up.res4.4/__module.model.backbone.bottom_up.res4.4.conv3 # /home/tbelldev/workspace/detectron2/detectron2/detectron2/layers/wrappers.py:113:0
  %running_var.185 : Tensor = prim::GetAttr[name="running_var"](%norm.79)
  %running_mean.185 : Tensor = prim::GetAttr[name="running_mean"](%norm.79)
  %bias.189 : Tensor = prim::GetAttr[name="bias"](%norm.79)
  %weight.269 : Tensor = prim::GetAttr[name="weight"](%norm.79)
  %out.93 : Float(1, 1024, 68, 50, strides=[3481600, 3400, 50, 1], requires_grad=0, device=cuda:0) = aten::batch_norm(%input.81, %weight.269, %bias.189, %running_mean.185, %running_var.185, %112, %116, %115, %114), scope: __module.model.backbone/__module.model.backbone.bottom_up/__module.model.backbone.bottom_up.res4/__module.model.backbone.bottom_up.res4.4/__module.model.backbone.bottom_up.res4.4.conv3/__module.model.backbone.bottom_up.res4.4.conv3.norm # /home/tbelldev/anaconda3/envs/autolabeling/lib/python3.8/site-packages/torch/nn/functional.py:2421:0
  %out.95 : Float(1, 1024, 68, 50, strides=[3481600, 3400, 50, 1], requires_grad=0, device=cuda:0) = aten::add_(%out.93, %x.73, %111), scope: __module.model.backbone/__module.model.backbone.bottom_up/__module.model.backbone.bottom_up.res4/__module.model.backbone.bottom_up.res4.4 # /home/tbelldev/workspace/detectron2/detectron2/detectron2/modeling/backbone/resnet.py:208:0
  %x.79 : Float(1, 1024, 68, 50, strides=[3481600, 3400, 50, 1], requires_grad=0, device=cuda:0) = aten::relu_(%out.95), scope: __module.model.backbone/__module.model.backbone.bottom_up/__module.model.backbone.bottom_up.res4/__module.model.backbone.bottom_up.res4.4 # /home/tbelldev/workspace/detectron2/detectron2/detectron2/modeling/backbone/resnet.py:209:0
  %conv3.25 : __torch__.detectron2.layers.wrappers.___torch_mangle_103.Conv2d = prim::GetAttr[name="conv3"](%_5)
  %conv2.25 : __torch__.detectron2.layers.wrappers.___torch_mangle_101.Conv2d = prim::GetAttr[name="conv2"](%_5)
  %conv1.27 : __torch__.detectron2.layers.wrappers.___torch_mangle_99.Conv2d = prim::GetAttr[name="conv1"](%_5)
  %norm.81 : __torch__.detectron2.layers.batch_norm.___torch_mangle_98.FrozenBatchNorm2d = prim::GetAttr[name="norm"](%conv1.27)
  %weight.271 : Tensor = prim::GetAttr[name="weight"](%conv1.27)
  %724 : int[] = prim::ListConstruct(%111, %111), scope: __module.model.backbone/__module.model.backbone.bottom_up/__module.model.backbone.bottom_up.res4/__module.model.backbone.bottom_up.res4.5/__module.model.backbone.bottom_up.res4.5.conv1
  %725 : int[] = prim::ListConstruct(%113, %113), scope: __module.model.backbone/__module.model.backbone.bottom_up/__module.model.backbone.bottom_up.res4/__module.model.backbone.bottom_up.res4.5/__module.model.backbone.bottom_up.res4.5.conv1
  %726 : int[] = prim::ListConstruct(%111, %111), scope: __module.model.backbone/__module.model.backbone.bottom_up/__module.model.backbone.bottom_up.res4/__module.model.backbone.bottom_up.res4.5/__module.model.backbone.bottom_up.res4.5.conv1
  %727 : int[] = prim::ListConstruct(%113, %113), scope: __module.model.backbone/__module.model.backbone.bottom_up/__module.model.backbone.bottom_up.res4/__module.model.backbone.bottom_up.res4.5/__module.model.backbone.bottom_up.res4.5.conv1
  %input.83 : Float(1, 256, 68, 50, strides=[870400, 3400, 50, 1], requires_grad=0, device=cuda:0) = aten::_convolution(%x.79, %weight.271, %108, %724, %725, %726, %112, %727, %111, %112, %112, %114, %114), scope: __module.model.backbone/__module.model.backbone.bottom_up/__module.model.backbone.bottom_up.res4/__module.model.backbone.bottom_up.res4.5/__module.model.backbone.bottom_up.res4.5.conv1 # /home/tbelldev/workspace/detectron2/detectron2/detectron2/layers/wrappers.py:113:0
  %running_var.187 : Tensor = prim::GetAttr[name="running_var"](%norm.81)
  %running_mean.187 : Tensor = prim::GetAttr[name="running_mean"](%norm.81)
  %bias.191 : Tensor = prim::GetAttr[name="bias"](%norm.81)
  %weight.273 : Tensor = prim::GetAttr[name="weight"](%norm.81)
  %out.97 : Float(1, 256, 68, 50, strides=[870400, 3400, 50, 1], requires_grad=0, device=cuda:0) = aten::batch_norm(%input.83, %weight.273, %bias.191, %running_mean.187, %running_var.187, %112, %116, %115, %114), scope: __module.model.backbone/__module.model.backbone.bottom_up/__module.model.backbone.bottom_up.res4/__module.model.backbone.bottom_up.res4.5/__module.model.backbone.bottom_up.res4.5.conv1/__module.model.backbone.bottom_up.res4.5.conv1.norm # /home/tbelldev/anaconda3/envs/autolabeling/lib/python3.8/site-packages/torch/nn/functional.py:2421:0
  %x.81 : Float(1, 256, 68, 50, strides=[870400, 3400, 50, 1], requires_grad=0, device=cuda:0) = aten::relu_(%out.97), scope: __module.model.backbone/__module.model.backbone.bottom_up/__module.model.backbone.bottom_up.res4/__module.model.backbone.bottom_up.res4.5 # /home/tbelldev/workspace/detectron2/detectron2/detectron2/modeling/backbone/resnet.py:196:0
  %norm.83 : __torch__.detectron2.layers.batch_norm.___torch_mangle_100.FrozenBatchNorm2d = prim::GetAttr[name="norm"](%conv2.25)
  %weight.275 : Tensor = prim::GetAttr[name="weight"](%conv2.25)
  %737 : int[] = prim::ListConstruct(%111, %111), scope: __module.model.backbone/__module.model.backbone.bottom_up/__module.model.backbone.bottom_up.res4/__module.model.backbone.bottom_up.res4.5/__module.model.backbone.bottom_up.res4.5.conv2
  %738 : int[] = prim::ListConstruct(%111, %111), scope: __module.model.backbone/__module.model.backbone.bottom_up/__module.model.backbone.bottom_up.res4/__module.model.backbone.bottom_up.res4.5/__module.model.backbone.bottom_up.res4.5.conv2
  %739 : int[] = prim::ListConstruct(%111, %111), scope: __module.model.backbone/__module.model.backbone.bottom_up/__module.model.backbone.bottom_up.res4/__module.model.backbone.bottom_up.res4.5/__module.model.backbone.bottom_up.res4.5.conv2
  %740 : int[] = prim::ListConstruct(%113, %113), scope: __module.model.backbone/__module.model.backbone.bottom_up/__module.model.backbone.bottom_up.res4/__module.model.backbone.bottom_up.res4.5/__module.model.backbone.bottom_up.res4.5.conv2
  %input.85 : Float(1, 256, 68, 50, strides=[870400, 3400, 50, 1], requires_grad=0, device=cuda:0) = aten::_convolution(%x.81, %weight.275, %108, %737, %738, %739, %112, %740, %111, %112, %112, %114, %114), scope: __module.model.backbone/__module.model.backbone.bottom_up/__module.model.backbone.bottom_up.res4/__module.model.backbone.bottom_up.res4.5/__module.model.backbone.bottom_up.res4.5.conv2 # /home/tbelldev/workspace/detectron2/detectron2/detectron2/layers/wrappers.py:113:0
  %running_var.189 : Tensor = prim::GetAttr[name="running_var"](%norm.83)
  %running_mean.189 : Tensor = prim::GetAttr[name="running_mean"](%norm.83)
  %bias.193 : Tensor = prim::GetAttr[name="bias"](%norm.83)
  %weight.277 : Tensor = prim::GetAttr[name="weight"](%norm.83)
  %out.99 : Float(1, 256, 68, 50, strides=[870400, 3400, 50, 1], requires_grad=0, device=cuda:0) = aten::batch_norm(%input.85, %weight.277, %bias.193, %running_mean.189, %running_var.189, %112, %116, %115, %114), scope: __module.model.backbone/__module.model.backbone.bottom_up/__module.model.backbone.bottom_up.res4/__module.model.backbone.bottom_up.res4.5/__module.model.backbone.bottom_up.res4.5.conv2/__module.model.backbone.bottom_up.res4.5.conv2.norm # /home/tbelldev/anaconda3/envs/autolabeling/lib/python3.8/site-packages/torch/nn/functional.py:2421:0
  %x.83 : Float(1, 256, 68, 50, strides=[870400, 3400, 50, 1], requires_grad=0, device=cuda:0) = aten::relu_(%out.99), scope: __module.model.backbone/__module.model.backbone.bottom_up/__module.model.backbone.bottom_up.res4/__module.model.backbone.bottom_up.res4.5 # /home/tbelldev/workspace/detectron2/detectron2/detectron2/modeling/backbone/resnet.py:199:0
  %norm.85 : __torch__.detectron2.layers.batch_norm.___torch_mangle_102.FrozenBatchNorm2d = prim::GetAttr[name="norm"](%conv3.25)
  %weight.279 : Tensor = prim::GetAttr[name="weight"](%conv3.25)
  %750 : int[] = prim::ListConstruct(%111, %111), scope: __module.model.backbone/__module.model.backbone.bottom_up/__module.model.backbone.bottom_up.res4/__module.model.backbone.bottom_up.res4.5/__module.model.backbone.bottom_up.res4.5.conv3
  %751 : int[] = prim::ListConstruct(%113, %113), scope: __module.model.backbone/__module.model.backbone.bottom_up/__module.model.backbone.bottom_up.res4/__module.model.backbone.bottom_up.res4.5/__module.model.backbone.bottom_up.res4.5.conv3
  %752 : int[] = prim::ListConstruct(%111, %111), scope: __module.model.backbone/__module.model.backbone.bottom_up/__module.model.backbone.bottom_up.res4/__module.model.backbone.bottom_up.res4.5/__module.model.backbone.bottom_up.res4.5.conv3
  %753 : int[] = prim::ListConstruct(%113, %113), scope: __module.model.backbone/__module.model.backbone.bottom_up/__module.model.backbone.bottom_up.res4/__module.model.backbone.bottom_up.res4.5/__module.model.backbone.bottom_up.res4.5.conv3
  %input.87 : Float(1, 1024, 68, 50, strides=[3481600, 3400, 50, 1], requires_grad=0, device=cuda:0) = aten::_convolution(%x.83, %weight.279, %108, %750, %751, %752, %112, %753, %111, %112, %112, %114, %114), scope: __module.model.backbone/__module.model.backbone.bottom_up/__module.model.backbone.bottom_up.res4/__module.model.backbone.bottom_up.res4.5/__module.model.backbone.bottom_up.res4.5.conv3 # /home/tbelldev/workspace/detectron2/detectron2/detectron2/layers/wrappers.py:113:0
  %running_var.191 : Tensor = prim::GetAttr[name="running_var"](%norm.85)
  %running_mean.191 : Tensor = prim::GetAttr[name="running_mean"](%norm.85)
  %bias.195 : Tensor = prim::GetAttr[name="bias"](%norm.85)
  %weight.281 : Tensor = prim::GetAttr[name="weight"](%norm.85)
  %out.101 : Float(1, 1024, 68, 50, strides=[3481600, 3400, 50, 1], requires_grad=0, device=cuda:0) = aten::batch_norm(%input.87, %weight.281, %bias.195, %running_mean.191, %running_var.191, %112, %116, %115, %114), scope: __module.model.backbone/__module.model.backbone.bottom_up/__module.model.backbone.bottom_up.res4/__module.model.backbone.bottom_up.res4.5/__module.model.backbone.bottom_up.res4.5.conv3/__module.model.backbone.bottom_up.res4.5.conv3.norm # /home/tbelldev/anaconda3/envs/autolabeling/lib/python3.8/site-packages/torch/nn/functional.py:2421:0
  %out.103 : Float(1, 1024, 68, 50, strides=[3481600, 3400, 50, 1], requires_grad=0, device=cuda:0) = aten::add_(%out.101, %x.79, %111), scope: __module.model.backbone/__module.model.backbone.bottom_up/__module.model.backbone.bottom_up.res4/__module.model.backbone.bottom_up.res4.5 # /home/tbelldev/workspace/detectron2/detectron2/detectron2/modeling/backbone/resnet.py:208:0
  %x.85 : Float(1, 1024, 68, 50, strides=[3481600, 3400, 50, 1], requires_grad=0, device=cuda:0) = aten::relu_(%out.103), scope: __module.model.backbone/__module.model.backbone.bottom_up/__module.model.backbone.bottom_up.res4/__module.model.backbone.bottom_up.res4.5 # /home/tbelldev/workspace/detectron2/detectron2/detectron2/modeling/backbone/resnet.py:209:0
  %_2.7 : __torch__.detectron2.modeling.backbone.resnet.___torch_mangle_128.BottleneckBlock = prim::GetAttr[name="2"](%res5)
  %_1.7 : __torch__.detectron2.modeling.backbone.resnet.___torch_mangle_121.BottleneckBlock = prim::GetAttr[name="1"](%res5)
  %_0.7 : __torch__.detectron2.modeling.backbone.resnet.___torch_mangle_114.BottleneckBlock = prim::GetAttr[name="0"](%res5)
  %shortcut : __torch__.detectron2.layers.wrappers.___torch_mangle_107.Conv2d = prim::GetAttr[name="shortcut"](%_0.7)
  %conv3.27 : __torch__.detectron2.layers.wrappers.___torch_mangle_113.Conv2d = prim::GetAttr[name="conv3"](%_0.7)
  %conv2.27 : __torch__.detectron2.layers.wrappers.___torch_mangle_111.Conv2d = prim::GetAttr[name="conv2"](%_0.7)
  %conv1.29 : __torch__.detectron2.layers.wrappers.___torch_mangle_109.Conv2d = prim::GetAttr[name="conv1"](%_0.7)
  %norm.87 : __torch__.detectron2.layers.batch_norm.___torch_mangle_108.FrozenBatchNorm2d = prim::GetAttr[name="norm"](%conv1.29)
  %weight.283 : Tensor = prim::GetAttr[name="weight"](%conv1.29)
  %771 : int[] = prim::ListConstruct(%109, %109), scope: __module.model.backbone/__module.model.backbone.bottom_up/__module.model.backbone.bottom_up.res5/__module.model.backbone.bottom_up.res5.0/__module.model.backbone.bottom_up.res5.0.conv1
  %772 : int[] = prim::ListConstruct(%113, %113), scope: __module.model.backbone/__module.model.backbone.bottom_up/__module.model.backbone.bottom_up.res5/__module.model.backbone.bottom_up.res5.0/__module.model.backbone.bottom_up.res5.0.conv1
  %773 : int[] = prim::ListConstruct(%111, %111), scope: __module.model.backbone/__module.model.backbone.bottom_up/__module.model.backbone.bottom_up.res5/__module.model.backbone.bottom_up.res5.0/__module.model.backbone.bottom_up.res5.0.conv1
  %774 : int[] = prim::ListConstruct(%113, %113), scope: __module.model.backbone/__module.model.backbone.bottom_up/__module.model.backbone.bottom_up.res5/__module.model.backbone.bottom_up.res5.0/__module.model.backbone.bottom_up.res5.0.conv1
…
  %2099 : Float(1000, strides=[1], requires_grad=0, device=cuda:0) = aten::slice(%heights, %1931, %1931, %1937, %1936), scope: __module.model.roi_heads # /home/tbelldev/workspace/detectron2/detectron2/detectron2/modeling/box_regression.py:107:0
  %2100 : Float(1000, 1, strides=[1, 1], requires_grad=0, device=cuda:0) = aten::unsqueeze(%2099, %1936), scope: __module.model.roi_heads # /home/tbelldev/workspace/detectron2/detectron2/detectron2/modeling/box_regression.py:107:0
  %2101 : Float(1000, 80, strides=[80, 1], requires_grad=0, device=cuda:0) = aten::mul(%dy, %2100), scope: __module.model.roi_heads # /home/tbelldev/workspace/detectron2/detectron2/detectron2/modeling/box_regression.py:107:0
  %2102 : Float(1000, strides=[1], requires_grad=0, device=cuda:0) = aten::slice(%ctr_y, %1931, %1931, %1937, %1936), scope: __module.model.roi_heads # /home/tbelldev/workspace/detectron2/detectron2/detectron2/modeling/box_regression.py:107:0
  %2103 : Float(1000, 1, strides=[1, 1], requires_grad=0, device=cuda:0) = aten::unsqueeze(%2102, %1936), scope: __module.model.roi_heads # /home/tbelldev/workspace/detectron2/detectron2/detectron2/modeling/box_regression.py:107:0
  %pred_ctr_y : Float(1000, 80, strides=[80, 1], requires_grad=0, device=cuda:0) = aten::add(%2101, %2103, %1936), scope: __module.model.roi_heads # /home/tbelldev/workspace/detectron2/detectron2/detectron2/modeling/box_regression.py:107:0
  %2105 : Float(1000, 80, strides=[80, 1], requires_grad=0, device=cuda:0) = aten::exp(%dw), scope: __module.model.roi_heads # /home/tbelldev/workspace/detectron2/detectron2/detectron2/modeling/box_regression.py:108:0
  %2106 : Float(1000, strides=[1], requires_grad=0, device=cuda:0) = aten::slice(%widths, %1931, %1931, %1937, %1936), scope: __module.model.roi_heads # /home/tbelldev/workspace/detectron2/detectron2/detectron2/modeling/box_regression.py:108:0
  %2107 : Float(1000, 1, strides=[1, 1], requires_grad=0, device=cuda:0) = aten::unsqueeze(%2106, %1936), scope: __module.model.roi_heads # /home/tbelldev/workspace/detectron2/detectron2/detectron2/modeling/box_regression.py:108:0
  %pred_w : Float(1000, 80, strides=[80, 1], requires_grad=0, device=cuda:0) = aten::mul(%2105, %2107), scope: __module.model.roi_heads # /home/tbelldev/workspace/detectron2/detectron2/detectron2/modeling/box_regression.py:108:0
  %2109 : Float(1000, 80, strides=[80, 1], requires_grad=0, device=cuda:0) = aten::exp(%dh), scope: __module.model.roi_heads # /home/tbelldev/workspace/detectron2/detectron2/detectron2/modeling/box_regression.py:109:0
  %2110 : Float(1000, strides=[1], requires_grad=0, device=cuda:0) = aten::slice(%heights, %1931, %1931, %1937, %1936), scope: __module.model.roi_heads # /home/tbelldev/workspace/detectron2/detectron2/detectron2/modeling/box_regression.py:109:0
  %2111 : Float(1000, 1, strides=[1, 1], requires_grad=0, device=cuda:0) = aten::unsqueeze(%2110, %1936), scope: __module.model.roi_heads # /home/tbelldev/workspace/detectron2/detectron2/detectron2/modeling/box_regression.py:109:0
  %pred_h : Float(1000, 80, strides=[80, 1], requires_grad=0, device=cuda:0) = aten::mul(%2109, %2111), scope: __module.model.roi_heads # /home/tbelldev/workspace/detectron2/detectron2/detectron2/modeling/box_regression.py:109:0
  %2113 : Float(1000, 80, strides=[80, 1], requires_grad=0, device=cuda:0) = aten::mul(%pred_w, %1929), scope: __module.model.roi_heads # /home/tbelldev/workspace/detectron2/detectron2/detectron2/modeling/box_regression.py:111:0
  %2114 : Float(1000, 80, strides=[80, 1], requires_grad=0, device=cuda:0) = aten::sub(%pred_ctr_x, %2113, %1936), scope: __module.model.roi_heads # /home/tbelldev/workspace/detectron2/detectron2/detectron2/modeling/box_regression.py:111:0
  %2115 : Float(1000, 80, strides=[80, 1], requires_grad=0, device=cuda:0) = aten::mul(%pred_h, %1929), scope: __module.model.roi_heads # /home/tbelldev/workspace/detectron2/detectron2/detectron2/modeling/box_regression.py:112:0
  %2116 : Float(1000, 80, strides=[80, 1], requires_grad=0, device=cuda:0) = aten::sub(%pred_ctr_y, %2115, %1936), scope: __module.model.roi_heads # /home/tbelldev/workspace/detectron2/detectron2/detectron2/modeling/box_regression.py:112:0
  %2117 : Float(1000, 80, strides=[80, 1], requires_grad=0, device=cuda:0) = aten::mul(%pred_w, %1929), scope: __module.model.roi_heads # /home/tbelldev/workspace/detectron2/detectron2/detectron2/modeling/box_regression.py:113:0
  %2118 : Float(1000, 80, strides=[80, 1], requires_grad=0, device=cuda:0) = aten::add(%pred_ctr_x, %2117, %1936), scope: __module.model.roi_heads # /home/tbelldev/workspace/detectron2/detectron2/detectron2/modeling/box_regression.py:113:0
  %2119 : Float(1000, 80, strides=[80, 1], requires_grad=0, device=cuda:0) = aten::mul(%pred_h, %1929), scope: __module.model.roi_heads # /home/tbelldev/workspace/detectron2/detectron2/detectron2/modeling/box_regression.py:114:0
  %2120 : Float(1000, 80, strides=[80, 1], requires_grad=0, device=cuda:0) = aten::add(%pred_ctr_y, %2119, %1936), scope: __module.model.roi_heads # /home/tbelldev/workspace/detectron2/detectron2/detectron2/modeling/box_regression.py:114:0
  %2121 : Tensor[] = prim::ListConstruct(%2114, %2116, %2118, %2120), scope: __module.model.roi_heads
  %2122 : Float(1000, 80, 4, strides=[320, 4, 1], requires_grad=0, device=cuda:0) = aten::stack(%2121, %1930), scope: __module.model.roi_heads # export_model.py:40:0
  %pred_boxes : Float(1000, 80, 4, strides=[320, 4, 1], requires_grad=0, device=cuda:0) = aten::to(%2122, %1949, %1931, %1933, %1934, %1935, %1935, %1934), scope: __module.model.roi_heads # export_model.py:40:0
  %2124 : int = aten::size(%deltas, %1931), scope: __module.model.roi_heads # /home/tbelldev/workspace/detectron2/detectron2/detectron2/modeling/box_regression.py:116:0
  %2125 : int = aten::size(%deltas, %1936), scope: __module.model.roi_heads # /home/tbelldev/workspace/detectron2/detectron2/detectron2/modeling/box_regression.py:116:0
  %2126 : int[] = prim::ListConstruct(%2124, %2125), scope: __module.model.roi_heads
  %2127 : Float(1000, 320, strides=[320, 1], requires_grad=0, device=cuda:0) = aten::reshape(%pred_boxes, %2126), scope: __module.model.roi_heads # /home/tbelldev/workspace/detectron2/detectron2/detectron2/modeling/box_regression.py:116:0
  %2128 : int[] = prim::ListConstruct(%2058), scope: __module.model.roi_heads
  %2129 : Tensor[] = aten::split_with_sizes(%2127, %2128, %1931), scope: __module.model.roi_heads # /home/tbelldev/anaconda3/envs/autolabeling/lib/python3.8/site-packages/torch/_tensor.py:574:0
  %boxes.31 : Float(1000, 320, strides=[320, 1], requires_grad=0, device=cuda:0) = prim::ListUnpack(%2129), scope: __module.model.roi_heads
  %2131 : int = aten::size(%boxes.29, %1931), scope: __module.model.roi_heads # /home/tbelldev/workspace/detectron2/detectron2/detectron2/structures/boxes.py:240:0
  %2132 : Float(1000, 81, strides=[81, 1], requires_grad=0, device=cuda:0) = aten::softmax(%2057, %1930, %1934), scope: __module.model.roi_heads # /home/tbelldev/anaconda3/envs/autolabeling/lib/python3.8/site-packages/torch/nn/functional.py:1818:0
  %2133 : int[] = prim::ListConstruct(%2131), scope: __module.model.roi_heads
  %2134 : Tensor[] = aten::split_with_sizes(%2132, %2133, %1931), scope: __module.model.roi_heads # /home/tbelldev/anaconda3/envs/autolabeling/lib/python3.8/site-packages/torch/_tensor.py:574:0
  %scores.1 : Float(1000, 81, strides=[81, 1], requires_grad=0, device=cuda:0) = prim::ListUnpack(%2134), scope: __module.model.roi_heads
  %2136 : Float(1000, 81, strides=[81, 1], requires_grad=0, device=cuda:0) = aten::slice(%scores.1, %1931, %1931, %1937, %1936), scope: __module.model.roi_heads # /home/tbelldev/workspace/detectron2/detectron2/detectron2/modeling/roi_heads/fast_rcnn.py:142:0
  %scores.3 : Float(1000, 80, strides=[81, 1], requires_grad=0, device=cuda:0) = aten::slice(%2136, %1936, %1931, %1930, %1936), scope: __module.model.roi_heads # /home/tbelldev/workspace/detectron2/detectron2/detectron2/modeling/roi_heads/fast_rcnn.py:142:0
  %2138 : int = aten::size(%boxes.31, %1936), scope: __module.model.roi_heads # /home/tbelldev/workspace/detectron2/detectron2/detectron2/modeling/roi_heads/fast_rcnn.py:143:0
  %2139 : Long(device=cpu) = prim::NumToTensor(%2138), scope: __module.model.roi_heads
  %num_bbox_reg_classes : Long(requires_grad=0, device=cpu) = aten::div(%2139, %1942, %1925), scope: __module.model.roi_heads # /home/tbelldev/anaconda3/envs/autolabeling/lib/python3.8/site-packages/torch/_tensor.py:647:0
  %2141 : int = aten::Int(%num_bbox_reg_classes), scope: __module.model.roi_heads
  %2142 : int[] = prim::ListConstruct(%1930, %1932), scope: __module.model.roi_heads
  %tensor.33 : Float(80000, 4, strides=[4, 1], requires_grad=0, device=cuda:0) = aten::reshape(%boxes.31, %2142), scope: __module.model.roi_heads # /home/tbelldev/workspace/detectron2/detectron2/detectron2/modeling/roi_heads/fast_rcnn.py:145:0
  %tensor.35 : Float(80000, 4, strides=[4, 1], requires_grad=0, device=cuda:0) = aten::to(%tensor.33, %1949, %1935, %1935, %1934), scope: __module.model.roi_heads # /home/tbelldev/workspace/detectron2/detectron2/detectron2/structures/boxes.py:150:0
  %2145 : Tensor[] = aten::unbind(%image_size, %1931), scope: __module.model.roi_heads # /home/tbelldev/anaconda3/envs/autolabeling/lib/python3.8/site-packages/torch/_tensor.py:704:0
  %h : Long(requires_grad=0, device=cuda:0), %w : Long(requires_grad=0, device=cuda:0) = prim::ListUnpack(%2145), scope: __module.model.roi_heads
  %2148 : Scalar = aten::ScalarImplicit(%h), scope: __module.model.roi_heads
  %2149 : Scalar = aten::ScalarImplicit(%w), scope: __module.model.roi_heads
  %2150 : Scalar = aten::ScalarImplicit(%h), scope: __module.model.roi_heads
  %2151 : Scalar = aten::ScalarImplicit(%w), scope: __module.model.roi_heads
  %2152 : Float(80000, 4, strides=[4, 1], requires_grad=0, device=cuda:0) = aten::slice(%tensor.35, %1931, %1931, %1937, %1936), scope: __module.model.roi_heads # /home/tbelldev/workspace/detectron2/detectron2/detectron2/structures/boxes.py:193:0
  %2153 : Float(80000, strides=[4], requires_grad=0, device=cuda:0) = aten::select(%2152, %1936, %1931), scope: __module.model.roi_heads # /home/tbelldev/workspace/detectron2/detectron2/detectron2/structures/boxes.py:193:0
  %2154 : Float(80000, strides=[1], requires_grad=0, device=cuda:0) = aten::clamp(%2153, %1931, %2151), scope: __module.model.roi_heads # /home/tbelldev/workspace/detectron2/detectron2/detectron2/structures/boxes.py:193:0
  %2155 : Float(80000, 4, strides=[4, 1], requires_grad=0, device=cuda:0) = aten::slice(%tensor.35, %1931, %1931, %1937, %1936), scope: __module.model.roi_heads # /home/tbelldev/workspace/detectron2/detectron2/detectron2/structures/boxes.py:194:0
  %2156 : Float(80000, strides=[4], requires_grad=0, device=cuda:0) = aten::select(%2155, %1936, %1936), scope: __module.model.roi_heads # /home/tbelldev/workspace/detectron2/detectron2/detectron2/structures/boxes.py:194:0
  %2157 : Float(80000, strides=[1], requires_grad=0, device=cuda:0) = aten::clamp(%2156, %1931, %2150), scope: __module.model.roi_heads # /home/tbelldev/workspace/detectron2/detectron2/detectron2/structures/boxes.py:194:0
  %2158 : Float(80000, 4, strides=[4, 1], requires_grad=0, device=cuda:0) = aten::slice(%tensor.35, %1931, %1931, %1937, %1936), scope: __module.model.roi_heads # /home/tbelldev/workspace/detectron2/detectron2/detectron2/structures/boxes.py:195:0
  %2159 : Float(80000, strides=[4], requires_grad=0, device=cuda:0) = aten::select(%2158, %1936, %1938), scope: __module.model.roi_heads # /home/tbelldev/workspace/detectron2/detectron2/detectron2/structures/boxes.py:195:0
  %2160 : Float(80000, strides=[1], requires_grad=0, device=cuda:0) = aten::clamp(%2159, %1931, %2149), scope: __module.model.roi_heads # /home/tbelldev/workspace/detectron2/detectron2/detectron2/structures/boxes.py:195:0
  %2161 : Float(80000, 4, strides=[4, 1], requires_grad=0, device=cuda:0) = aten::slice(%tensor.35, %1931, %1931, %1937, %1936), scope: __module.model.roi_heads # /home/tbelldev/workspace/detectron2/detectron2/detectron2/structures/boxes.py:196:0
  %2162 : Float(80000, strides=[4], requires_grad=0, device=cuda:0) = aten::select(%2161, %1936, %1939), scope: __module.model.roi_heads # /home/tbelldev/workspace/detectron2/detectron2/detectron2/structures/boxes.py:196:0
  %2163 : Float(80000, strides=[1], requires_grad=0, device=cuda:0) = aten::clamp(%2162, %1931, %2148), scope: __module.model.roi_heads # /home/tbelldev/workspace/detectron2/detectron2/detectron2/structures/boxes.py:196:0
  %2164 : Tensor[] = prim::ListConstruct(%2154, %2157, %2160, %2163), scope: __module.model.roi_heads
  %2165 : Float(80000, 4, strides=[4, 1], requires_grad=0, device=cuda:0) = aten::stack(%2164, %1930), scope: __module.model.roi_heads # export_model.py:40:0
  %2166 : Float(80000, 4, strides=[4, 1], requires_grad=0, device=cuda:0) = aten::to(%2165, %1949, %1931, %1933, %1934, %1935, %1935, %1934), scope: __module.model.roi_heads # export_model.py:40:0
  %2167 : int[] = prim::ListConstruct(%1930, %2141, %1932), scope: __module.model.roi_heads
  %boxes.33 : Float(1000, 80, 4, strides=[320, 4, 1], requires_grad=0, device=cuda:0) = aten::view(%2166, %2167), scope: __module.model.roi_heads # /home/tbelldev/workspace/detectron2/detectron2/detectron2/modeling/roi_heads/fast_rcnn.py:147:0
  %filter_mask : Bool(1000, 80, strides=[80, 1], requires_grad=0, device=cuda:0) = aten::gt(%scores.3, %1924), scope: __module.model.roi_heads # /home/tbelldev/workspace/detectron2/detectron2/detectron2/modeling/roi_heads/fast_rcnn.py:151:0
  %filter_inds.1 : Long(425, 2, strides=[1, 425], requires_grad=0, device=cuda:0) = aten::nonzero(%filter_mask), scope: __module.model.roi_heads # /home/tbelldev/workspace/detectron2/detectron2/detectron2/modeling/roi_heads/fast_rcnn.py:154:0
  %2171 : Tensor?[] = prim::ListConstruct(%filter_mask), scope: __module.model.roi_heads
  %boxes.35 : Float(425, 4, strides=[4, 1], requires_grad=0, device=cuda:0) = aten::index(%boxes.33, %2171), scope: __module.model.roi_heads # /home/tbelldev/workspace/detectron2/detectron2/detectron2/modeling/roi_heads/fast_rcnn.py:158:0
  %2173 : Tensor?[] = prim::ListConstruct(%filter_mask), scope: __module.model.roi_heads
  %scores : Float(425, strides=[1], requires_grad=0, device=cuda:0) = aten::index(%scores.3, %2173), scope: __module.model.roi_heads # /home/tbelldev/workspace/detectron2/detectron2/detectron2/modeling/roi_heads/fast_rcnn.py:159:0
  %2175 : Long(425, 2, strides=[1, 425], requires_grad=0, device=cuda:0) = aten::slice(%filter_inds.1, %1931, %1931, %1937, %1936), scope: __module.model.roi_heads # /home/tbelldev/workspace/detectron2/detectron2/detectron2/modeling/roi_heads/fast_rcnn.py:162:0
  %2176 : Long(425, strides=[1], requires_grad=0, device=cuda:0) = aten::select(%2175, %1936, %1936), scope: __module.model.roi_heads # /home/tbelldev/workspace/detectron2/detectron2/detectron2/modeling/roi_heads/fast_rcnn.py:162:0
  %boxes.37 : Float(425, 4, strides=[4, 1], requires_grad=0, device=cuda:0) = aten::to(%boxes.35, %1949, %1935, %1935, %1934), scope: __module.model.roi_heads # /home/tbelldev/workspace/detectron2/detectron2/detectron2/layers/nms.py:20:0
  %2178 : int = aten::numel(%boxes.37) # /home/tbelldev/anaconda3/envs/autolabeling/lib/python3.8/site-packages/torchvision/ops/boxes.py:88:7
  %2179 : bool = aten::eq(%2178, %1931) # /home/tbelldev/anaconda3/envs/autolabeling/lib/python3.8/site-packages/torchvision/ops/boxes.py:88:7
  %keep.4 : Tensor = prim::If(%2179) # /home/tbelldev/anaconda3/envs/autolabeling/lib/python3.8/site-packages/torchvision/ops/boxes.py:88:4
    block0():
      %2181 : Device = prim::device(%boxes.37)
      %2182 : int[] = prim::ListConstruct(%1931)
      %2183 : Tensor = aten::empty(%2182, %1932, %1934, %2181, %1934, %1934) # /home/tbelldev/anaconda3/envs/autolabeling/lib/python3.8/site-packages/torchvision/ops/boxes.py:89:15
      -> (%2183)
    block1():
      %max_coordinate.3 : Tensor = aten::max(%boxes.37) # /home/tbelldev/anaconda3/envs/autolabeling/lib/python3.8/site-packages/torchvision/ops/boxes.py:90:21
      %2185 : Tensor = aten::to(%2176, %boxes.37, %1935, %1935, %1934) # /home/tbelldev/anaconda3/envs/autolabeling/lib/python3.8/site-packages/torchvision/ops/boxes.py:91:14
      %2186 : Tensor = aten::tensor(%1936, %1934, %1934, %1935) # /home/tbelldev/anaconda3/envs/autolabeling/lib/python3.8/site-packages/torchvision/ops/boxes.py:91:49
      %2187 : Tensor = aten::to(%2186, %boxes.37, %1935, %1935, %1934) # /home/tbelldev/anaconda3/envs/autolabeling/lib/python3.8/site-packages/torchvision/ops/boxes.py:91:49
      %2188 : Tensor = aten::add(%max_coordinate.3, %2187, %1936) # /home/tbelldev/anaconda3/envs/autolabeling/lib/python3.8/site-packages/torchvision/ops/boxes.py:91:32
      %offsets.3 : Tensor = aten::mul(%2185, %2188) # /home/tbelldev/anaconda3/envs/autolabeling/lib/python3.8/site-packages/torchvision/ops/boxes.py:91:14
      %2190 : Tensor = aten::slice(%offsets.3, %1931, %1934, %1934, %1936) # /home/tbelldev/anaconda3/envs/autolabeling/lib/python3.8/site-packages/torchvision/ops/boxes.py:92:28
      %2191 : Tensor = aten::unsqueeze(%2190, %1936) # /home/tbelldev/anaconda3/envs/autolabeling/lib/python3.8/site-packages/torchvision/ops/boxes.py:92:28
      %boxes_for_nms.3 : Tensor = aten::add(%boxes.37, %2191, %1936) # /home/tbelldev/anaconda3/envs/autolabeling/lib/python3.8/site-packages/torchvision/ops/boxes.py:92:20
      %keep.3 : Tensor = torchvision::nms(%boxes_for_nms.3, %scores, %1923) # /home/tbelldev/anaconda3/envs/autolabeling/lib/python3.8/site-packages/torchvision/ops/boxes.py:40:11
      -> (%keep.3)
  %keep : Long(52, strides=[1], requires_grad=0, device=cuda:0) = aten::slice(%keep.4, %1931, %1931, %1922, %1936), scope: __module.model.roi_heads # /home/tbelldev/workspace/detectron2/detectron2/detectron2/modeling/roi_heads/fast_rcnn.py:164:0
  %2195 : Tensor?[] = prim::ListConstruct(%keep), scope: __module.model.roi_heads
  %tensor.37 : Float(52, 4, strides=[4, 1], requires_grad=0, device=cuda:0) = aten::index(%boxes.37, %2195), scope: __module.model.roi_heads # /home/tbelldev/workspace/detectron2/detectron2/detectron2/modeling/roi_heads/fast_rcnn.py:165:0
  %2197 : Tensor?[] = prim::ListConstruct(%keep), scope: __module.model.roi_heads
  %2198 : Float(52, strides=[1], requires_grad=0, device=cuda:0) = aten::index(%scores, %2197), scope: __module.model.roi_heads # /home/tbelldev/workspace/detectron2/detectron2/detectron2/modeling/roi_heads/fast_rcnn.py:165:0
  %2199 : Tensor?[] = prim::ListConstruct(%keep), scope: __module.model.roi_heads
  %filter_inds : Long(52, 2, strides=[2, 1], requires_grad=0, device=cuda:0) = aten::index(%filter_inds.1, %2199), scope: __module.model.roi_heads # /home/tbelldev/workspace/detectron2/detectron2/detectron2/modeling/roi_heads/fast_rcnn.py:165:0
  %tensor : Float(52, 4, strides=[4, 1], requires_grad=0, device=cuda:0) = aten::to(%tensor.37, %1949, %1935, %1935, %1934), scope: __module.model.roi_heads # /home/tbelldev/workspace/detectron2/detectron2/detectron2/structures/boxes.py:150:0
  %2202 : Long(52, 2, strides=[2, 1], requires_grad=0, device=cuda:0) = aten::slice(%filter_inds, %1931, %1931, %1937, %1936), scope: __module.model.roi_heads # /home/tbelldev/workspace/detectron2/detectron2/detectron2/modeling/roi_heads/fast_rcnn.py:170:0
  %class_pred : Long(52, strides=[2], requires_grad=0, device=cuda:0) = aten::select(%2202, %1936, %1936), scope: __module.model.roi_heads # /home/tbelldev/workspace/detectron2/detectron2/detectron2/modeling/roi_heads/fast_rcnn.py:170:0
  %2204 : Tensor[] = prim::ListConstruct(%tensor), scope: __module.model.roi_heads/__module.model.roi_heads.mask_pooler
  %2205 : Float(52, 4, strides=[4, 1], requires_grad=0, device=cuda:0) = aten::cat(%2204, %1931), scope: __module.model.roi_heads/__module.model.roi_heads.mask_pooler # /home/tbelldev/workspace/detectron2/detectron2/detectron2/modeling/poolers.py:95:0
  %2206 : int = aten::size(%tensor, %1931), scope: __module.model.roi_heads/__module.model.roi_heads.mask_pooler # /home/tbelldev/workspace/detectron2/detectron2/detectron2/structures/boxes.py:240:0
  %2207 : Long(device=cpu) = prim::NumToTensor(%2206), scope: __module.model.roi_heads/__module.model.roi_heads.mask_pooler
  %2208 : Tensor[] = prim::ListConstruct(%2207), scope: __module.model.roi_heads/__module.model.roi_heads.mask_pooler
  %2209 : Long(1, strides=[1], requires_grad=0, device=cpu) = aten::stack(%2208, %1931), scope: __module.model.roi_heads/__module.model.roi_heads.mask_pooler # export_model.py:40:0
  %2210 : Long(1, strides=[1], requires_grad=0, device=cuda:0) = aten::to(%2209, %1932, %1931, %1933, %1934, %1935, %1935, %1934), scope: __module.model.roi_heads/__module.model.roi_heads.mask_pooler # export_model.py:40:0
  %2211 : Device = prim::device(%2205)
  %sizes.5 : Tensor = aten::to(%2210, %1934, %1934, %2211, %1934, %1935, %1935, %1934) # /home/tbelldev/workspace/detectron2/detectron2/detectron2/modeling/poolers.py:65:12
  %2213 : int = aten::len(%sizes.5) # /home/tbelldev/workspace/detectron2/detectron2/detectron2/modeling/poolers.py:67:21
  %2214 : int = prim::dtype(%2205)
  %2215 : Device = prim::device(%2205)
  %2216 : Tensor = aten::arange(%2213, %2214, %1934, %2215, %1934) # /home/tbelldev/workspace/detectron2/detectron2/detectron2/modeling/poolers.py:67:8
  %indices.1 : Tensor = aten::repeat_interleave(%2216, %sizes.5, %1934, %1934) # /home/tbelldev/workspace/detectron2/detectron2/detectron2/modeling/poolers.py:66:14
  %2218 : Tensor = aten::slice(%indices.1, %1931, %1934, %1934, %1936) # /home/tbelldev/workspace/detectron2/detectron2/detectron2/modeling/poolers.py:69:16
  %2219 : Tensor = aten::unsqueeze(%2218, %1936) # /home/tbelldev/workspace/detectron2/detectron2/detectron2/modeling/poolers.py:69:16
  %2220 : Tensor[] = prim::ListConstruct(%2219, %2205)
  %pooler_fmt_boxes : Tensor = aten::cat(%2220, %1936) # /home/tbelldev/workspace/detectron2/detectron2/detectron2/layers/wrappers.py:46:11
  %2222 : Float(52, 4, strides=[4, 1], requires_grad=0, device=cuda:0) = aten::slice(%tensor, %1931, %1931, %1937, %1936), scope: __module.model.roi_heads/__module.model.roi_heads.mask_pooler # /home/tbelldev/workspace/detectron2/detectron2/detectron2/structures/boxes.py:180:0
  %2223 : Float(52, strides=[4], requires_grad=0, device=cuda:0) = aten::select(%2222, %1936, %1938), scope: __module.model.roi_heads/__module.model.roi_heads.mask_pooler # /home/tbelldev/workspace/detectron2/detectron2/detectron2/structures/boxes.py:180:0
  %2224 : Float(52, 4, strides=[4, 1], requires_grad=0, device=cuda:0) = aten::slice(%tensor, %1931, %1931, %1937, %1936), scope: __module.model.roi_heads/__module.model.roi_heads.mask_pooler # /home/tbelldev/workspace/detectron2/detectron2/detectron2/structures/boxes.py:180:0
  %2225 : Float(52, strides=[4], requires_grad=0, device=cuda:0) = aten::select(%2224, %1936, %1931), scope: __module.model.roi_heads/__module.model.roi_heads.mask_pooler # /home/tbelldev/workspace/detectron2/detectron2/detectron2/structures/boxes.py:180:0
  %2226 : Float(52, strides=[1], requires_grad=0, device=cuda:0) = aten::sub(%2223, %2225, %1936), scope: __module.model.roi_heads/__module.model.roi_heads.mask_pooler # /home/tbelldev/workspace/detectron2/detectron2/detectron2/structures/boxes.py:180:0
  %2227 : Float(52, 4, strides=[4, 1], requires_grad=0, device=cuda:0) = aten::slice(%tensor, %1931, %1931, %1937, %1936), scope: __module.model.roi_heads/__module.model.roi_heads.mask_pooler # /home/tbelldev/workspace/detectron2/detectron2/detectron2/structures/boxes.py:180:0
  %2228 : Float(52, strides=[4], requires_grad=0, device=cuda:0) = aten::select(%2227, %1936, %1939), scope: __module.model.roi_heads/__module.model.roi_heads.mask_pooler # /home/tbelldev/workspace/detectron2/detectron2/detectron2/structures/boxes.py:180:0
  %2229 : Float(52, 4, strides=[4, 1], requires_grad=0, device=cuda:0) = aten::slice(%tensor, %1931, %1931, %1937, %1936), scope: __module.model.roi_heads/__module.model.roi_heads.mask_pooler # /home/tbelldev/workspace/detectron2/detectron2/detectron2/structures/boxes.py:180:0
  %2230 : Float(52, strides=[4], requires_grad=0, device=cuda:0) = aten::select(%2229, %1936, %1936), scope: __module.model.roi_heads/__module.model.roi_heads.mask_pooler # /home/tbelldev/workspace/detectron2/detectron2/detectron2/structures/boxes.py:180:0
  %2231 : Float(52, strides=[1], requires_grad=0, device=cuda:0) = aten::sub(%2228, %2230, %1936), scope: __module.model.roi_heads/__module.model.roi_heads.mask_pooler # /home/tbelldev/workspace/detectron2/detectron2/detectron2/structures/boxes.py:180:0
  %2232 : Float(52, strides=[1], requires_grad=0, device=cuda:0) = aten::mul(%2226, %2231), scope: __module.model.roi_heads/__module.model.roi_heads.mask_pooler # /home/tbelldev/workspace/detectron2/detectron2/detectron2/structures/boxes.py:180:0
  %box_sizes : Float(52, strides=[1], requires_grad=0, device=cuda:0) = aten::sqrt(%2232), scope: __module.model.roi_heads/__module.model.roi_heads.mask_pooler # /home/tbelldev/workspace/detectron2/detectron2/detectron2/modeling/poolers.py:51:0
  %2234 : Float(52, strides=[1], requires_grad=0, device=cuda:0) = aten::div(%box_sizes, %1940), scope: __module.model.roi_heads/__module.model.roi_heads.mask_pooler # /home/tbelldev/workspace/detectron2/detectron2/detectron2/modeling/poolers.py:54:0
  %2235 : Float(52, strides=[1], requires_grad=0, device=cuda:0) = aten::add(%2234, %1941, %1936), scope: __module.model.roi_heads/__module.model.roi_heads.mask_pooler # /home/tbelldev/workspace/detectron2/detectron2/detectron2/modeling/poolers.py:54:0
  %2236 : Float(52, strides=[1], requires_grad=0, device=cuda:0) = aten::log2(%2235), scope: __module.model.roi_heads/__module.model.roi_heads.mask_pooler # /home/tbelldev/workspace/detectron2/detectron2/detectron2/modeling/poolers.py:54:0
  %2237 : Float(52, strides=[1], requires_grad=0, device=cuda:0) = aten::add(%2236, %1942, %1936), scope: __module.model.roi_heads/__module.model.roi_heads.mask_pooler # /home/tbelldev/workspace/detectron2/detectron2/detectron2/modeling/poolers.py:54:0
  %level_assignments.7 : Float(52, strides=[1], requires_grad=0, device=cuda:0) = aten::floor(%2237), scope: __module.model.roi_heads/__module.model.roi_heads.mask_pooler # /home/tbelldev/workspace/detectron2/detectron2/detectron2/modeling/poolers.py:53:0
  %level_assignments.9 : Float(52, strides=[1], requires_grad=0, device=cuda:0) = aten::clamp(%level_assignments.7, %1938, %1943), scope: __module.model.roi_heads/__module.model.roi_heads.mask_pooler # /home/tbelldev/workspace/detectron2/detectron2/detectron2/modeling/poolers.py:58:0
  %2240 : Long(52, strides=[1], requires_grad=0, device=cuda:0) = aten::to(%level_assignments.9, %1932, %1935, %1935, %1934), scope: __module.model.roi_heads/__module.model.roi_heads.mask_pooler # /home/tbelldev/workspace/detectron2/detectron2/detectron2/modeling/poolers.py:59:0
  %level_assignments : Long(52, strides=[1], requires_grad=0, device=cuda:0) = aten::sub(%2240, %1944, %1936), scope: __module.model.roi_heads/__module.model.roi_heads.mask_pooler # /home/tbelldev/workspace/detectron2/detectron2/detectron2/modeling/poolers.py:59:0
  %2242 : int[] = aten::size(%pooler_fmt_boxes) # <string>:13:9
  %2243 : int = aten::__getitem__(%2242, %1931) # /home/tbelldev/workspace/detectron2/detectron2/detectron2/modeling/poolers.py:109:14
  %2244 : int = prim::dtype(%85)
  %2245 : Device = prim::device(%85)
  %2246 : int[] = prim::ListConstruct(%2243, %1945, %1921, %1921)
  %output.9 : Tensor = aten::zeros(%2246, %2244, %1934, %2245, %1934) # /home/tbelldev/workspace/detectron2/detectron2/detectron2/modeling/poolers.py:111:11
  %x.131 : Bool(52, strides=[1], requires_grad=0, device=cuda:0) = aten::eq(%level_assignments, %1931), scope: __module.model.roi_heads/__module.model.roi_heads.mask_pooler # /home/tbelldev/workspace/detectron2/detectron2/detectron2/modeling/poolers.py:258:0
  %2249 : Tensor[] = aten::nonzero_numpy(%x.131), scope: __module.model.roi_heads/__module.model.roi_heads.mask_pooler # /home/tbelldev/workspace/detectron2/detectron2/detectron2/layers/wrappers.py:139:0
  %inds.9 : Long(48, strides=[1], requires_grad=0, device=cuda:0) = prim::ListUnpack(%2249), scope: __module.model.roi_heads/__module.model.roi_heads.mask_pooler
  %2251 : Tensor?[] = prim::ListConstruct(%inds.9), scope: __module.model.roi_heads/__module.model.roi_heads.mask_pooler
  %rois.9 : Float(48, 5, strides=[5, 1], requires_grad=0, device=cuda:0) = aten::index(%pooler_fmt_boxes, %2251), scope: __module.model.roi_heads/__module.model.roi_heads.mask_pooler # /home/tbelldev/workspace/detectron2/detectron2/detectron2/modeling/poolers.py:259:0
  %boxes.39 : Float(48, 5, strides=[5, 1], requires_grad=0, device=cuda:0) = aten::to(%rois.9, %1949, %1935, %1935, %1934), scope: __module.model.roi_heads/__module.model.roi_heads.mask_pooler/__module.model.roi_heads.mask_pooler.level_poolers.0 # /home/tbelldev/workspace/detectron2/detectron2/detectron2/layers/roi_align.py:60:0
  %2254 : Float(48, 256, 14, 14, strides=[50176, 196, 14, 1], requires_grad=0, device=cuda:0) = torchvision::roi_align(%85, %boxes.39, %1948, %1921, %1921, %1931, %1947), scope: __module.model.roi_heads/__module.model.roi_heads.mask_pooler/__module.model.roi_heads.mask_pooler.level_poolers.0 # /home/tbelldev/anaconda3/envs/autolabeling/lib/python3.8/site-packages/torchvision/ops/roi_align.py:61:0
  %2255 : Tensor?[] = prim::ListConstruct(%inds.9), scope: __module.model.roi_heads/__module.model.roi_heads.mask_pooler
  %output.11 : Float(52, 256, 14, 14, strides=[50176, 196, 14, 1], requires_grad=0, device=cuda:0) = aten::index_put_(%output.9, %2255, %2254, %1935), scope: __module.model.roi_heads/__module.model.roi_heads.mask_pooler # /home/tbelldev/workspace/detectron2/detectron2/detectron2/modeling/poolers.py:261:0
  %x.133 : Bool(52, strides=[1], requires_grad=0, device=cuda:0) = aten::eq(%level_assignments, %1936), scope: __module.model.roi_heads/__module.model.roi_heads.mask_pooler # /home/tbelldev/workspace/detectron2/detectron2/detectron2/modeling/poolers.py:258:0
  %2258 : Tensor[] = aten::nonzero_numpy(%x.133), scope: __module.model.roi_heads/__module.model.roi_heads.mask_pooler # /home/tbelldev/workspace/detectron2/detectron2/detectron2/layers/wrappers.py:139:0
  %inds.11 : Long(4, strides=[1], requires_grad=0, device=cuda:0) = prim::ListUnpack(%2258), scope: __module.model.roi_heads/__module.model.roi_heads.mask_pooler
  %2260 : Tensor?[] = prim::ListConstruct(%inds.11), scope: __module.model.roi_heads/__module.model.roi_heads.mask_pooler
  %rois.11 : Float(4, 5, strides=[5, 1], requires_grad=0, device=cuda:0) = aten::index(%pooler_fmt_boxes, %2260), scope: __module.model.roi_heads/__module.model.roi_heads.mask_pooler # /home/tbelldev/workspace/detectron2/detectron2/detectron2/modeling/poolers.py:259:0
  %boxes.41 : Float(4, 5, strides=[5, 1], requires_grad=0, device=cuda:0) = aten::to(%rois.11, %1949, %1935, %1935, %1934), scope: __module.model.roi_heads/__module.model.roi_heads.mask_pooler/__module.model.roi_heads.mask_pooler.level_poolers.1 # /home/tbelldev/workspace/detectron2/detectron2/detectron2/layers/roi_align.py:60:0
  %2263 : Float(4, 256, 14, 14, strides=[50176, 196, 14, 1], requires_grad=0, device=cuda:0) = torchvision::roi_align(%86, %boxes.41, %1950, %1921, %1921, %1931, %1947), scope: __module.model.roi_heads/__module.model.roi_heads.mask_pooler/__module.model.roi_heads.mask_pooler.level_poolers.1 # /home/tbelldev/anaconda3/envs/autolabeling/lib/python3.8/site-packages/torchvision/ops/roi_align.py:61:0
  %2264 : Tensor?[] = prim::ListConstruct(%inds.11), scope: __module.model.roi_heads/__module.model.roi_heads.mask_pooler
  %output.13 : Float(52, 256, 14, 14, strides=[50176, 196, 14, 1], requires_grad=0, device=cuda:0) = aten::index_put_(%output.11, %2264, %2263, %1935), scope: __module.model.roi_heads/__module.model.roi_heads.mask_pooler # /home/tbelldev/workspace/detectron2/detectron2/detectron2/modeling/poolers.py:261:0
  %x.135 : Bool(52, strides=[1], requires_grad=0, device=cuda:0) = aten::eq(%level_assignments, %1938), scope: __module.model.roi_heads/__module.model.roi_heads.mask_pooler # /home/tbelldev/workspace/detectron2/detectron2/detectron2/modeling/poolers.py:258:0
  %2267 : Tensor[] = aten::nonzero_numpy(%x.135), scope: __module.model.roi_heads/__module.model.roi_heads.mask_pooler # /home/tbelldev/workspace/detectron2/detectron2/detectron2/layers/wrappers.py:139:0
  %inds.13 : Long(0, strides=[1], requires_grad=0, device=cuda:0) = prim::ListUnpack(%2267), scope: __module.model.roi_heads/__module.model.roi_heads.mask_pooler
  %2269 : Tensor?[] = prim::ListConstruct(%inds.13), scope: __module.model.roi_heads/__module.model.roi_heads.mask_pooler
  %rois.13 : Float(0, 5, strides=[5, 1], requires_grad=0, device=cuda:0) = aten::index(%pooler_fmt_boxes, %2269), scope: __module.model.roi_heads/__module.model.roi_heads.mask_pooler # /home/tbelldev/workspace/detectron2/detectron2/detectron2/modeling/poolers.py:259:0
  %boxes.43 : Float(0, 5, strides=[5, 1], requires_grad=0, device=cuda:0) = aten::to(%rois.13, %1949, %1935, %1935, %1934), scope: __module.model.roi_heads/__module.model.roi_heads.mask_pooler/__module.model.roi_heads.mask_pooler.level_poolers.2 # /home/tbelldev/workspace/detectron2/detectron2/detectron2/layers/roi_align.py:60:0
  %2272 : Float(0, 256, 14, 14, strides=[50176, 196, 14, 1], requires_grad=0, device=cuda:0) = torchvision::roi_align(%87, %boxes.43, %1951, %1921, %1921, %1931, %1947), scope: __module.model.roi_heads/__module.model.roi_heads.mask_pooler/__module.model.roi_heads.mask_pooler.level_poolers.2 # /home/tbelldev/anaconda3/envs/autolabeling/lib/python3.8/site-packages/torchvision/ops/roi_align.py:61:0
  %2273 : Tensor?[] = prim::ListConstruct(%inds.13), scope: __module.model.roi_heads/__module.model.roi_heads.mask_pooler
  %output : Float(52, 256, 14, 14, strides=[50176, 196, 14, 1], requires_grad=0, device=cuda:0) = aten::index_put_(%output.13, %2273, %2272, %1935), scope: __module.model.roi_heads/__module.model.roi_heads.mask_pooler # /home/tbelldev/workspace/detectron2/detectron2/detectron2/modeling/poolers.py:261:0
  %x.137 : Bool(52, strides=[1], requires_grad=0, device=cuda:0) = aten::eq(%level_assignments, %1939), scope: __module.model.roi_heads/__module.model.roi_heads.mask_pooler # /home/tbelldev/workspace/detectron2/detectron2/detectron2/modeling/poolers.py:258:0
  %2276 : Tensor[] = aten::nonzero_numpy(%x.137), scope: __module.model.roi_heads/__module.model.roi_heads.mask_pooler # /home/tbelldev/workspace/detectron2/detectron2/detectron2/layers/wrappers.py:139:0
  %inds : Long(0, strides=[1], requires_grad=0, device=cuda:0) = prim::ListUnpack(%2276), scope: __module.model.roi_heads/__module.model.roi_heads.mask_pooler
  %2278 : Tensor?[] = prim::ListConstruct(%inds), scope: __module.model.roi_heads/__module.model.roi_heads.mask_pooler
  %rois : Float(0, 5, strides=[5, 1], requires_grad=0, device=cuda:0) = aten::index(%pooler_fmt_boxes, %2278), scope: __module.model.roi_heads/__module.model.roi_heads.mask_pooler # /home/tbelldev/workspace/detectron2/detectron2/detectron2/modeling/poolers.py:259:0
  %boxes : Float(0, 5, strides=[5, 1], requires_grad=0, device=cuda:0) = aten::to(%rois, %1949, %1935, %1935, %1934), scope: __module.model.roi_heads/__module.model.roi_heads.mask_pooler/__module.model.roi_heads.mask_pooler.level_poolers.3 # /home/tbelldev/workspace/detectron2/detectron2/detectron2/layers/roi_align.py:60:0
  %2281 : Float(0, 256, 14, 14, strides=[50176, 196, 14, 1], requires_grad=0, device=cuda:0) = torchvision::roi_align(%95, %boxes, %1952, %1921, %1921, %1931, %1947), scope: __module.model.roi_heads/__module.model.roi_heads.mask_pooler/__module.model.roi_heads.mask_pooler.level_poolers.3 # /home/tbelldev/anaconda3/envs/autolabeling/lib/python3.8/site-packages/torchvision/ops/roi_align.py:61:0
  %2282 : Tensor?[] = prim::ListConstruct(%inds), scope: __module.model.roi_heads/__module.model.roi_heads.mask_pooler
  %x.139 : Float(52, 256, 14, 14, strides=[50176, 196, 14, 1], requires_grad=0, device=cuda:0) = aten::index_put_(%output, %2282, %2281, %1935), scope: __module.model.roi_heads/__module.model.roi_heads.mask_pooler # /home/tbelldev/workspace/detectron2/detectron2/detectron2/modeling/poolers.py:261:0
  %predictor : __torch__.detectron2.layers.wrappers.___torch_mangle_155.Conv2d = prim::GetAttr[name="predictor"](%mask_head)
  %deconv : __torch__.torch.nn.modules.conv.ConvTranspose2d = prim::GetAttr[name="deconv"](%mask_head)
  %mask_fcn4 : __torch__.detectron2.layers.wrappers.___torch_mangle_153.Conv2d = prim::GetAttr[name="mask_fcn4"](%mask_head)
  %mask_fcn3 : __torch__.detectron2.layers.wrappers.___torch_mangle_151.Conv2d = prim::GetAttr[name="mask_fcn3"](%mask_head)
  %mask_fcn2 : __torch__.detectron2.layers.wrappers.___torch_mangle_149.Conv2d = prim::GetAttr[name="mask_fcn2"](%mask_head)
  %mask_fcn1 : __torch__.detectron2.layers.wrappers.___torch_mangle_147.Conv2d = prim::GetAttr[name="mask_fcn1"](%mask_head)
  %bias.271 : Tensor = prim::GetAttr[name="bias"](%mask_fcn1)
  %weight.377 : Tensor = prim::GetAttr[name="weight"](%mask_fcn1)
  %2292 : int[] = prim::ListConstruct(%1936, %1936), scope: __module.model.roi_heads/__module.model.roi_heads.mask_head/__module.model.roi_heads.mask_head.mask_fcn1
  %2293 : int[] = prim::ListConstruct(%1936, %1936), scope: __module.model.roi_heads/__module.model.roi_heads.mask_head/__module.model.roi_heads.mask_head.mask_fcn1
  %2294 : int[] = prim::ListConstruct(%1936, %1936), scope: __module.model.roi_heads/__module.model.roi_heads.mask_head/__module.model.roi_heads.mask_head.mask_fcn1
  %2295 : int[] = prim::ListConstruct(%1931, %1931), scope: __module.model.roi_heads/__module.model.roi_heads.mask_head/__module.model.roi_heads.mask_head.mask_fcn1
  %input.145 : Float(52, 256, 14, 14, strides=[50176, 196, 14, 1], requires_grad=0, device=cuda:0) = aten::_convolution(%x.139, %weight.377, %bias.271, %2292, %2293, %2294, %1935, %2295, %1936, %1935, %1935, %1947, %1947), scope: __module.model.roi_heads/__module.model.roi_heads.mask_head/__module.model.roi_heads.mask_head.mask_fcn1 # /home/tbelldev/workspace/detectron2/detectron2/detectron2/layers/wrappers.py:113:0
  %x.141 : Float(52, 256, 14, 14, strides=[50176, 196, 14, 1], requires_grad=0, device=cuda:0) = aten::relu(%input.145), scope: __module.model.roi_heads/__module.model.roi_heads.mask_head/__module.model.roi_heads.mask_head.mask_fcn1/__module.model.roi_heads.mask_head.mask_fcn1.activation # /home/tbelldev/anaconda3/envs/autolabeling/lib/python3.8/site-packages/torch/nn/functional.py:1442:0
  %bias.273 : Tensor = prim::GetAttr[name="bias"](%mask_fcn2)
  %weight.379 : Tensor = prim::GetAttr[name="weight"](%mask_fcn2)
  %2300 : int[] = prim::ListConstruct(%1936, %1936), scope: __module.model.roi_heads/__module.model.roi_heads.mask_head/__module.model.roi_heads.mask_head.mask_fcn2
  %2301 : int[] = prim::ListConstruct(%1936, %1936), scope: __module.model.roi_heads/__module.model.roi_heads.mask_head/__module.model.roi_heads.mask_head.mask_fcn2
  %2302 : int[] = prim::ListConstruct(%1936, %1936), scope: __module.model.roi_heads/__module.model.roi_heads.mask_head/__module.model.roi_heads.mask_head.mask_fcn2
  %2303 : int[] = prim::ListConstruct(%1931, %1931), scope: __module.model.roi_heads/__module.model.roi_heads.mask_head/__module.model.roi_heads.mask_head.mask_fcn2
  %input.147 : Float(52, 256, 14, 14, strides=[50176, 196, 14, 1], requires_grad=0, device=cuda:0) = aten::_convolution(%x.141, %weight.379, %bias.273, %2300, %2301, %2302, %1935, %2303, %1936, %1935, %1935, %1947, %1947), scope: __module.model.roi_heads/__module.model.roi_heads.mask_head/__module.model.roi_heads.mask_head.mask_fcn2 # /home/tbelldev/workspace/detectron2/detectron2/detectron2/layers/wrappers.py:113:0
  %x.143 : Float(52, 256, 14, 14, strides=[50176, 196, 14, 1], requires_grad=0, device=cuda:0) = aten::relu(%input.147), scope: __module.model.roi_heads/__module.model.roi_heads.mask_head/__module.model.roi_heads.mask_head.mask_fcn2/__module.model.roi_heads.mask_head.mask_fcn2.activation # /home/tbelldev/anaconda3/envs/autolabeling/lib/python3.8/site-packages/torch/nn/functional.py:1442:0
  %bias.275 : Tensor = prim::GetAttr[name="bias"](%mask_fcn3)
  %weight.381 : Tensor = prim::GetAttr[name="weight"](%mask_fcn3)
  %2308 : int[] = prim::ListConstruct(%1936, %1936), scope: __module.model.roi_heads/__module.model.roi_heads.mask_head/__module.model.roi_heads.mask_head.mask_fcn3
  %2309 : int[] = prim::ListConstruct(%1936, %1936), scope: __module.model.roi_heads/__module.model.roi_heads.mask_head/__module.model.roi_heads.mask_head.mask_fcn3
  %2310 : int[] = prim::ListConstruct(%1936, %1936), scope: __module.model.roi_heads/__module.model.roi_heads.mask_head/__module.model.roi_heads.mask_head.mask_fcn3
  %2311 : int[] = prim::ListConstruct(%1931, %1931), scope: __module.model.roi_heads/__module.model.roi_heads.mask_head/__module.model.roi_heads.mask_head.mask_fcn3
  %input.149 : Float(52, 256, 14, 14, strides=[50176, 196, 14, 1], requires_grad=0, device=cuda:0) = aten::_convolution(%x.143, %weight.381, %bias.275, %2308, %2309, %2310, %1935, %2311, %1936, %1935, %1935, %1947, %1947), scope: __module.model.roi_heads/__module.model.roi_heads.mask_head/__module.model.roi_heads.mask_head.mask_fcn3 # /home/tbelldev/workspace/detectron2/detectron2/detectron2/layers/wrappers.py:113:0
  %x.145 : Float(52, 256, 14, 14, strides=[50176, 196, 14, 1], requires_grad=0, device=cuda:0) = aten::relu(%input.149), scope: __module.model.roi_heads/__module.model.roi_heads.mask_head/__module.model.roi_heads.mask_head.mask_fcn3/__module.model.roi_heads.mask_head.mask_fcn3.activation # /home/tbelldev/anaconda3/envs/autolabeling/lib/python3.8/site-packages/torch/nn/functional.py:1442:0
  %bias.277 : Tensor = prim::GetAttr[name="bias"](%mask_fcn4)
  %weight.383 : Tensor = prim::GetAttr[name="weight"](%mask_fcn4)
  %2316 : int[] = prim::ListConstruct(%1936, %1936), scope: __module.model.roi_heads/__module.model.roi_heads.mask_head/__module.model.roi_heads.mask_head.mask_fcn4
  %2317 : int[] = prim::ListConstruct(%1936, %1936), scope: __module.model.roi_heads/__module.model.roi_heads.mask_head/__module.model.roi_heads.mask_head.mask_fcn4
  %2318 : int[] = prim::ListConstruct(%1936, %1936), scope: __module.model.roi_heads/__module.model.roi_heads.mask_head/__module.model.roi_heads.mask_head.mask_fcn4
  %2319 : int[] = prim::ListConstruct(%1931, %1931), scope: __module.model.roi_heads/__module.model.roi_heads.mask_head/__module.model.roi_heads.mask_head.mask_fcn4
  %input.151 : Float(52, 256, 14, 14, strides=[50176, 196, 14, 1], requires_grad=0, device=cuda:0) = aten::_convolution(%x.145, %weight.383, %bias.277, %2316, %2317, %2318, %1935, %2319, %1936, %1935, %1935, %1947, %1947), scope: __module.model.roi_heads/__module.model.roi_heads.mask_head/__module.model.roi_heads.mask_head.mask_fcn4 # /home/tbelldev/workspace/detectron2/detectron2/detectron2/layers/wrappers.py:113:0
  %input.153 : Float(52, 256, 14, 14, strides=[50176, 196, 14, 1], requires_grad=0, device=cuda:0) = aten::relu(%input.151), scope: __module.model.roi_heads/__module.model.roi_heads.mask_head/__module.model.roi_heads.mask_head.mask_fcn4/__module.model.roi_heads.mask_head.mask_fcn4.activation # /home/tbelldev/anaconda3/envs/autolabeling/lib/python3.8/site-packages/torch/nn/functional.py:1442:0
  %bias.279 : Tensor = prim::GetAttr[name="bias"](%deconv)
  %weight.385 : Tensor = prim::GetAttr[name="weight"](%deconv)
  %2324 : int[] = prim::ListConstruct(%1938, %1938), scope: __module.model.roi_heads/__module.model.roi_heads.mask_head/__module.model.roi_heads.mask_head.deconv
  %2325 : int[] = prim::ListConstruct(%1931, %1931), scope: __module.model.roi_heads/__module.model.roi_heads.mask_head/__module.model.roi_heads.mask_head.deconv
  %2326 : int[] = prim::ListConstruct(%1936, %1936), scope: __module.model.roi_heads/__module.model.roi_heads.mask_head/__module.model.roi_heads.mask_head.deconv
  %2327 : int[] = prim::ListConstruct(%1931, %1931), scope: __module.model.roi_heads/__module.model.roi_heads.mask_head/__module.model.roi_heads.mask_head.deconv
  %input : Float(52, 256, 28, 28, strides=[200704, 784, 28, 1], requires_grad=0, device=cuda:0) = aten::_convolution(%input.153, %weight.385, %bias.279, %2324, %2325, %2326, %1947, %2327, %1936, %1935, %1935, %1947, %1947), scope: __module.model.roi_heads/__module.model.roi_heads.mask_head/__module.model.roi_heads.mask_head.deconv # /home/tbelldev/anaconda3/envs/autolabeling/lib/python3.8/site-packages/torch/nn/modules/conv.py:925:0
  %x : Float(52, 256, 28, 28, strides=[200704, 784, 28, 1], requires_grad=0, device=cuda:0) = aten::relu(%input), scope: __module.model.roi_heads/__module.model.roi_heads.mask_head/__module.model.roi_heads.mask_head.deconv_relu # /home/tbelldev/anaconda3/envs/autolabeling/lib/python3.8/site-packages/torch/nn/functional.py:1442:0
  %bias : Tensor = prim::GetAttr[name="bias"](%predictor)
  %weight : Tensor = prim::GetAttr[name="weight"](%predictor)
  %2332 : int[] = prim::ListConstruct(%1936, %1936), scope: __module.model.roi_heads/__module.model.roi_heads.mask_head/__module.model.roi_heads.mask_head.predictor
  %2333 : int[] = prim::ListConstruct(%1931, %1931), scope: __module.model.roi_heads/__module.model.roi_heads.mask_head/__module.model.roi_heads.mask_head.predictor
  %2334 : int[] = prim::ListConstruct(%1936, %1936), scope: __module.model.roi_heads/__module.model.roi_heads.mask_head/__module.model.roi_heads.mask_head.predictor
  %2335 : int[] = prim::ListConstruct(%1931, %1931), scope: __module.model.roi_heads/__module.model.roi_heads.mask_head/__module.model.roi_heads.mask_head.predictor
  %pred_mask_logits : Float(52, 80, 28, 28, strides=[62720, 784, 28, 1], requires_grad=0, device=cuda:0) = aten::_convolution(%x, %weight, %bias, %2332, %2333, %2334, %1935, %2335, %1936, %1935, %1935, %1947, %1947), scope: __module.model.roi_heads/__module.model.roi_heads.mask_head/__module.model.roi_heads.mask_head.predictor # /home/tbelldev/workspace/detectron2/detectron2/detectron2/layers/wrappers.py:113:0
  %2337 : int = aten::size(%pred_mask_logits, %1931), scope: __module.model.roi_heads/__module.model.roi_heads.mask_head # /home/tbelldev/workspace/detectron2/detectron2/detectron2/modeling/roi_heads/mask_head.py:143:0
  %2338 : Long(52, strides=[1], requires_grad=0, device=cpu) = aten::arange(%2337, %1934, %1931, %1920, %1935), scope: __module.model.roi_heads/__module.model.roi_heads.mask_head # /home/tbelldev/workspace/detectron2/detectron2/detectron2/modeling/roi_heads/mask_head.py:150:0
  %2339 : Device = prim::device(%class_pred)
  %indices : Tensor = aten::to(%2338, %2339, %1934, %1935, %1935) # /home/tbelldev/workspace/detectron2/detectron2/detectron2/layers/wrappers.py:148:11
  %2341 : Tensor?[] = prim::ListConstruct(%indices, %class_pred), scope: __module.model.roi_heads/__module.model.roi_heads.mask_head
  %2342 : Float(52, 28, 28, strides=[784, 28, 1], requires_grad=0, device=cuda:0) = aten::index(%pred_mask_logits, %2341), scope: __module.model.roi_heads/__module.model.roi_heads.mask_head # /home/tbelldev/workspace/detectron2/detectron2/detectron2/modeling/roi_heads/mask_head.py:151:0
  %2343 : Float(52, 28, 28, strides=[784, 28, 1], requires_grad=0, device=cuda:0) = aten::slice(%2342, %1931, %1931, %1937, %1936), scope: __module.model.roi_heads/__module.model.roi_heads.mask_head # /home/tbelldev/workspace/detectron2/detectron2/detectron2/modeling/roi_heads/mask_head.py:151:0
  %2344 : Float(52, 1, 28, 28, strides=[784, 784, 28, 1], requires_grad=0, device=cuda:0) = aten::unsqueeze(%2343, %1936), scope: __module.model.roi_heads/__module.model.roi_heads.mask_head # /home/tbelldev/workspace/detectron2/detectron2/detectron2/modeling/roi_heads/mask_head.py:151:0
  %2345 : Float(52, 1, 28, 28, strides=[784, 784, 28, 1], requires_grad=0, device=cuda:0) = aten::sigmoid(%2344), scope: __module.model.roi_heads/__module.model.roi_heads.mask_head # /home/tbelldev/workspace/detectron2/detectron2/detectron2/modeling/roi_heads/mask_head.py:151:0
  %2346 : int = aten::size(%tensor, %1931), scope: __module.model.roi_heads/__module.model.roi_heads.mask_head # /home/tbelldev/workspace/detectron2/detectron2/detectron2/structures/boxes.py:240:0
  %2347 : int[] = prim::ListConstruct(%2346), scope: __module.model.roi_heads/__module.model.roi_heads.mask_head
  %2348 : Tensor[] = aten::split_with_sizes(%2345, %2347, %1931), scope: __module.model.roi_heads/__module.model.roi_heads.mask_head # /home/tbelldev/anaconda3/envs/autolabeling/lib/python3.8/site-packages/torch/_tensor.py:574:0
  %2349 : Float(52, 1, 28, 28, strides=[784, 784, 28, 1], requires_grad=0, device=cuda:0) = prim::ListUnpack(%2348), scope: __module.model.roi_heads/__module.model.roi_heads.mask_head
  %2350 : (Float(52, 4, strides=[4, 1], requires_grad=0, device=cuda:0), Long(52, strides=[2], requires_grad=0, device=cuda:0), Float(52, 1, 28, 28, strides=[784, 784, 28, 1], requires_grad=0, device=cuda:0), Float(52, strides=[1], requires_grad=0, device=cuda:0)) = prim::TupleConstruct(%tensor, %class_pred, %2349, %2198)
  %98 : Float(52, 4, strides=[4, 1], requires_grad=0, device=cuda:0), %99 : Long(52, strides=[2], requires_grad=0, device=cuda:0), %100 : Float(52, 1, 28, 28, strides=[784, 784, 28, 1], requires_grad=0, device=cuda:0), %101 : Float(52, strides=[1], requires_grad=0, device=cuda:0) = prim::TupleUnpack(%2350)
  %102 : (Float(52, 4, strides=[4, 1], requires_grad=0, device=cuda:0), Long(52, strides=[2], requires_grad=0, device=cuda:0), Float(52, 1, 28, 28, strides=[784, 784, 28, 1], requires_grad=0, device=cuda:0), Float(52, strides=[1], requires_grad=0, device=cuda:0), Long(2, strides=[1], requires_grad=0, device=cuda:0)) = prim::TupleConstruct(%98, %99, %100, %101, %image_size)
  return (%102)
